node {
  name: "global_step/Initializer/zeros"
  op: "Const"
  attr {
    key: "_class"
    value {
      list {
        s: "loc:@global_step"
      }
    }
  }
  attr {
    key: "_output_shapes"
    value {
      list {
        shape {
        }
      }
    }
  }
  attr {
    key: "dtype"
    value {
      type: DT_INT64
    }
  }
  attr {
    key: "value"
    value {
      tensor {
        dtype: DT_INT64
        tensor_shape {
        }
        int64_val: 0
      }
    }
  }
}
node {
  name: "global_step"
  op: "VariableV2"
  attr {
    key: "_class"
    value {
      list {
        s: "loc:@global_step"
      }
    }
  }
  attr {
    key: "_output_shapes"
    value {
      list {
        shape {
        }
      }
    }
  }
  attr {
    key: "container"
    value {
      s: ""
    }
  }
  attr {
    key: "dtype"
    value {
      type: DT_INT64
    }
  }
  attr {
    key: "shape"
    value {
      shape {
      }
    }
  }
  attr {
    key: "shared_name"
    value {
      s: ""
    }
  }
}
node {
  name: "global_step/Assign"
  op: "Assign"
  input: "global_step"
  input: "global_step/Initializer/zeros"
  attr {
    key: "T"
    value {
      type: DT_INT64
    }
  }
  attr {
    key: "_class"
    value {
      list {
        s: "loc:@global_step"
      }
    }
  }
  attr {
    key: "_output_shapes"
    value {
      list {
        shape {
        }
      }
    }
  }
  attr {
    key: "use_locking"
    value {
      b: true
    }
  }
  attr {
    key: "validate_shape"
    value {
      b: true
    }
  }
}
node {
  name: "global_step/read"
  op: "Identity"
  input: "global_step"
  attr {
    key: "T"
    value {
      type: DT_INT64
    }
  }
  attr {
    key: "_class"
    value {
      list {
        s: "loc:@global_step"
      }
    }
  }
  attr {
    key: "_output_shapes"
    value {
      list {
        shape {
        }
      }
    }
  }
}
node {
  name: "global_step/IsVariableInitialized"
  op: "IsVariableInitialized"
  input: "global_step"
  attr {
    key: "_class"
    value {
      list {
        s: "loc:@global_step"
      }
    }
  }
  attr {
    key: "_output_shapes"
    value {
      list {
        shape {
        }
      }
    }
  }
  attr {
    key: "dtype"
    value {
      type: DT_INT64
    }
  }
}
node {
  name: "global_step/cond/Switch"
  op: "Switch"
  input: "global_step/IsVariableInitialized"
  input: "global_step/IsVariableInitialized"
  attr {
    key: "T"
    value {
      type: DT_BOOL
    }
  }
  attr {
    key: "_output_shapes"
    value {
      list {
        shape {
        }
        shape {
        }
      }
    }
  }
}
node {
  name: "global_step/cond/switch_t"
  op: "Identity"
  input: "global_step/cond/Switch:1"
  attr {
    key: "T"
    value {
      type: DT_BOOL
    }
  }
  attr {
    key: "_output_shapes"
    value {
      list {
        shape {
        }
      }
    }
  }
}
node {
  name: "global_step/cond/switch_f"
  op: "Identity"
  input: "global_step/cond/Switch"
  attr {
    key: "T"
    value {
      type: DT_BOOL
    }
  }
  attr {
    key: "_output_shapes"
    value {
      list {
        shape {
        }
      }
    }
  }
}
node {
  name: "global_step/cond/pred_id"
  op: "Identity"
  input: "global_step/IsVariableInitialized"
  attr {
    key: "T"
    value {
      type: DT_BOOL
    }
  }
  attr {
    key: "_output_shapes"
    value {
      list {
        shape {
        }
      }
    }
  }
}
node {
  name: "global_step/cond/read"
  op: "Identity"
  input: "global_step/cond/read/Switch:1"
  attr {
    key: "T"
    value {
      type: DT_INT64
    }
  }
  attr {
    key: "_output_shapes"
    value {
      list {
        shape {
        }
      }
    }
  }
}
node {
  name: "global_step/cond/read/Switch"
  op: "RefSwitch"
  input: "global_step"
  input: "global_step/cond/pred_id"
  attr {
    key: "T"
    value {
      type: DT_INT64
    }
  }
  attr {
    key: "_class"
    value {
      list {
        s: "loc:@global_step"
      }
    }
  }
  attr {
    key: "_output_shapes"
    value {
      list {
        shape {
        }
        shape {
        }
      }
    }
  }
}
node {
  name: "global_step/cond/Switch_1"
  op: "Switch"
  input: "global_step/Initializer/zeros"
  input: "global_step/cond/pred_id"
  attr {
    key: "T"
    value {
      type: DT_INT64
    }
  }
  attr {
    key: "_class"
    value {
      list {
        s: "loc:@global_step"
      }
    }
  }
  attr {
    key: "_output_shapes"
    value {
      list {
        shape {
        }
        shape {
        }
      }
    }
  }
}
node {
  name: "global_step/cond/Merge"
  op: "Merge"
  input: "global_step/cond/Switch_1"
  input: "global_step/cond/read"
  attr {
    key: "N"
    value {
      i: 2
    }
  }
  attr {
    key: "T"
    value {
      type: DT_INT64
    }
  }
  attr {
    key: "_output_shapes"
    value {
      list {
        shape {
        }
        shape {
        }
      }
    }
  }
}
node {
  name: "global_step/add/y"
  op: "Const"
  attr {
    key: "_output_shapes"
    value {
      list {
        shape {
        }
      }
    }
  }
  attr {
    key: "dtype"
    value {
      type: DT_INT64
    }
  }
  attr {
    key: "value"
    value {
      tensor {
        dtype: DT_INT64
        tensor_shape {
        }
        int64_val: 0
      }
    }
  }
}
node {
  name: "global_step/add"
  op: "Add"
  input: "global_step/cond/Merge"
  input: "global_step/add/y"
  attr {
    key: "T"
    value {
      type: DT_INT64
    }
  }
  attr {
    key: "_output_shapes"
    value {
      list {
        shape {
        }
      }
    }
  }
}
node {
  name: "Const"
  op: "Const"
  device: "/device:CPU:0"
  attr {
    key: "_output_shapes"
    value {
      list {
        shape {
          dim {
            size: 784
          }
        }
      }
    }
  }
  attr {
    key: "dtype"
    value {
      type: DT_UINT8
    }
  }
  attr {
    key: "value"
    value {
      tensor {
        dtype: DT_UINT8
        tensor_shape {
          dim {
            size: 784
          }
        }
        tensor_content: "…"
      }
    }
  }
}
node {
  name: "Reshape/shape"
  op: "Const"
  device: "/device:CPU:0"
  attr {
    key: "_output_shapes"
    value {
      list {
        shape {
          dim {
            size: 2
          }
        }
      }
    }
  }
  attr {
    key: "dtype"
    value {
      type: DT_INT32
    }
  }
  attr {
    key: "value"
    value {
      tensor {
        dtype: DT_INT32
        tensor_shape {
          dim {
            size: 2
          }
        }
        tensor_content: "\034\000\000\000\034\000\000\000"
      }
    }
  }
}
node {
  name: "Reshape"
  op: "Reshape"
  input: "Const"
  input: "Reshape/shape"
  device: "/device:CPU:0"
  attr {
    key: "T"
    value {
      type: DT_UINT8
    }
  }
  attr {
    key: "Tshape"
    value {
      type: DT_INT32
    }
  }
  attr {
    key: "_output_shapes"
    value {
      list {
        shape {
          dim {
            size: 28
          }
          dim {
            size: 28
          }
        }
      }
    }
  }
}
node {
  name: "Cast"
  op: "Cast"
  input: "Reshape"
  device: "/device:CPU:0"
  attr {
    key: "DstT"
    value {
      type: DT_HALF
    }
  }
  attr {
    key: "SrcT"
    value {
      type: DT_UINT8
    }
  }
  attr {
    key: "_output_shapes"
    value {
      list {
        shape {
          dim {
            size: 28
          }
          dim {
            size: 28
          }
        }
      }
    }
  }
}
node {
  name: "Const_1"
  op: "Const"
  device: "/device:CPU:0"
  attr {
    key: "_output_shapes"
    value {
      list {
        shape {
          dim {
            size: 784
          }
        }
      }
    }
  }
  attr {
    key: "dtype"
    value {
      type: DT_UINT8
    }
  }
  attr {
    key: "value"
    value {
      tensor {
        dtype: DT_UINT8
        tensor_shape {
          dim {
            size: 784
          }
        }
        tensor_content: "…"
      }
    }
  }
}
node {
  name: "Reshape_1/shape"
  op: "Const"
  device: "/device:CPU:0"
  attr {
    key: "_output_shapes"
    value {
      list {
        shape {
          dim {
            size: 2
          }
        }
      }
    }
  }
  attr {
    key: "dtype"
    value {
      type: DT_INT32
    }
  }
  attr {
    key: "value"
    value {
      tensor {
        dtype: DT_INT32
        tensor_shape {
          dim {
            size: 2
          }
        }
        tensor_content: "\034\000\000\000\034\000\000\000"
      }
    }
  }
}
node {
  name: "Reshape_1"
  op: "Reshape"
  input: "Const_1"
  input: "Reshape_1/shape"
  device: "/device:CPU:0"
  attr {
    key: "T"
    value {
      type: DT_UINT8
    }
  }
  attr {
    key: "Tshape"
    value {
      type: DT_INT32
    }
  }
  attr {
    key: "_output_shapes"
    value {
      list {
        shape {
          dim {
            size: 28
          }
          dim {
            size: 28
          }
        }
      }
    }
  }
}
node {
  name: "Cast_1"
  op: "Cast"
  input: "Reshape_1"
  device: "/device:CPU:0"
  attr {
    key: "DstT"
    value {
      type: DT_HALF
    }
  }
  attr {
    key: "SrcT"
    value {
      type: DT_UINT8
    }
  }
  attr {
    key: "_output_shapes"
    value {
      list {
        shape {
          dim {
            size: 28
          }
          dim {
            size: 28
          }
        }
      }
    }
  }
}
node {
  name: "Const_2"
  op: "Const"
  device: "/device:CPU:0"
  attr {
    key: "_output_shapes"
    value {
      list {
        shape {
          dim {
            size: 784
          }
        }
      }
    }
  }
  attr {
    key: "dtype"
    value {
      type: DT_UINT8
    }
  }
  attr {
    key: "value"
    value {
      tensor {
        dtype: DT_UINT8
        tensor_shape {
          dim {
            size: 784
          }
        }
        tensor_content: "…"
      }
    }
  }
}
node {
  name: "Reshape_2/shape"
  op: "Const"
  device: "/device:CPU:0"
  attr {
    key: "_output_shapes"
    value {
      list {
        shape {
          dim {
            size: 2
          }
        }
      }
    }
  }
  attr {
    key: "dtype"
    value {
      type: DT_INT32
    }
  }
  attr {
    key: "value"
    value {
      tensor {
        dtype: DT_INT32
        tensor_shape {
          dim {
            size: 2
          }
        }
        tensor_content: "\034\000\000\000\034\000\000\000"
      }
    }
  }
}
node {
  name: "Reshape_2"
  op: "Reshape"
  input: "Const_2"
  input: "Reshape_2/shape"
  device: "/device:CPU:0"
  attr {
    key: "T"
    value {
      type: DT_UINT8
    }
  }
  attr {
    key: "Tshape"
    value {
      type: DT_INT32
    }
  }
  attr {
    key: "_output_shapes"
    value {
      list {
        shape {
          dim {
            size: 28
          }
          dim {
            size: 28
          }
        }
      }
    }
  }
}
node {
  name: "Cast_2"
  op: "Cast"
  input: "Reshape_2"
  device: "/device:CPU:0"
  attr {
    key: "DstT"
    value {
      type: DT_HALF
    }
  }
  attr {
    key: "SrcT"
    value {
      type: DT_UINT8
    }
  }
  attr {
    key: "_output_shapes"
    value {
      list {
        shape {
          dim {
            size: 28
          }
          dim {
            size: 28
          }
        }
      }
    }
  }
}
node {
  name: "Const_3"
  op: "Const"
  device: "/device:CPU:0"
  attr {
    key: "_output_shapes"
    value {
      list {
        shape {
          dim {
            size: 784
          }
        }
      }
    }
  }
  attr {
    key: "dtype"
    value {
      type: DT_UINT8
    }
  }
  attr {
    key: "value"
    value {
      tensor {
        dtype: DT_UINT8
        tensor_shape {
          dim {
            size: 784
          }
        }
        tensor_content: "…"
      }
    }
  }
}
node {
  name: "Reshape_3/shape"
  op: "Const"
  device: "/device:CPU:0"
  attr {
    key: "_output_shapes"
    value {
      list {
        shape {
          dim {
            size: 2
          }
        }
      }
    }
  }
  attr {
    key: "dtype"
    value {
      type: DT_INT32
    }
  }
  attr {
    key: "value"
    value {
      tensor {
        dtype: DT_INT32
        tensor_shape {
          dim {
            size: 2
          }
        }
        tensor_content: "\034\000\000\000\034\000\000\000"
      }
    }
  }
}
node {
  name: "Reshape_3"
  op: "Reshape"
  input: "Const_3"
  input: "Reshape_3/shape"
  device: "/device:CPU:0"
  attr {
    key: "T"
    value {
      type: DT_UINT8
    }
  }
  attr {
    key: "Tshape"
    value {
      type: DT_INT32
    }
  }
  attr {
    key: "_output_shapes"
    value {
      list {
        shape {
          dim {
            size: 28
          }
          dim {
            size: 28
          }
        }
      }
    }
  }
}
node {
  name: "Cast_3"
  op: "Cast"
  input: "Reshape_3"
  device: "/device:CPU:0"
  attr {
    key: "DstT"
    value {
      type: DT_HALF
    }
  }
  attr {
    key: "SrcT"
    value {
      type: DT_UINT8
    }
  }
  attr {
    key: "_output_shapes"
    value {
      list {
        shape {
          dim {
            size: 28
          }
          dim {
            size: 28
          }
        }
      }
    }
  }
}
node {
  name: "Const_4"
  op: "Const"
  device: "/device:CPU:0"
  attr {
    key: "_output_shapes"
    value {
      list {
        shape {
          dim {
            size: 784
          }
        }
      }
    }
  }
  attr {
    key: "dtype"
    value {
      type: DT_UINT8
    }
  }
  attr {
    key: "value"
    value {
      tensor {
        dtype: DT_UINT8
        tensor_shape {
          dim {
            size: 784
          }
        }
        tensor_content: "…"
      }
    }
  }
}
node {
  name: "Reshape_4/shape"
  op: "Const"
  device: "/device:CPU:0"
  attr {
    key: "_output_shapes"
    value {
      list {
        shape {
          dim {
            size: 2
          }
        }
      }
    }
  }
  attr {
    key: "dtype"
    value {
      type: DT_INT32
    }
  }
  attr {
    key: "value"
    value {
      tensor {
        dtype: DT_INT32
        tensor_shape {
          dim {
            size: 2
          }
        }
        tensor_content: "\034\000\000\000\034\000\000\000"
      }
    }
  }
}
node {
  name: "Reshape_4"
  op: "Reshape"
  input: "Const_4"
  input: "Reshape_4/shape"
  device: "/device:CPU:0"
  attr {
    key: "T"
    value {
      type: DT_UINT8
    }
  }
  attr {
    key: "Tshape"
    value {
      type: DT_INT32
    }
  }
  attr {
    key: "_output_shapes"
    value {
      list {
        shape {
          dim {
            size: 28
          }
          dim {
            size: 28
          }
        }
      }
    }
  }
}
node {
  name: "Cast_4"
  op: "Cast"
  input: "Reshape_4"
  device: "/device:CPU:0"
  attr {
    key: "DstT"
    value {
      type: DT_HALF
    }
  }
  attr {
    key: "SrcT"
    value {
      type: DT_UINT8
    }
  }
  attr {
    key: "_output_shapes"
    value {
      list {
        shape {
          dim {
            size: 28
          }
          dim {
            size: 28
          }
        }
      }
    }
  }
}
node {
  name: "Const_5"
  op: "Const"
  device: "/device:CPU:0"
  attr {
    key: "_output_shapes"
    value {
      list {
        shape {
          dim {
            size: 784
          }
        }
      }
    }
  }
  attr {
    key: "dtype"
    value {
      type: DT_UINT8
    }
  }
  attr {
    key: "value"
    value {
      tensor {
        dtype: DT_UINT8
        tensor_shape {
          dim {
            size: 784
          }
        }
        tensor_content: "…"
      }
    }
  }
}
node {
  name: "Reshape_5/shape"
  op: "Const"
  device: "/device:CPU:0"
  attr {
    key: "_output_shapes"
    value {
      list {
        shape {
          dim {
            size: 2
          }
        }
      }
    }
  }
  attr {
    key: "dtype"
    value {
      type: DT_INT32
    }
  }
  attr {
    key: "value"
    value {
      tensor {
        dtype: DT_INT32
        tensor_shape {
          dim {
            size: 2
          }
        }
        tensor_content: "\034\000\000\000\034\000\000\000"
      }
    }
  }
}
node {
  name: "Reshape_5"
  op: "Reshape"
  input: "Const_5"
  input: "Reshape_5/shape"
  device: "/device:CPU:0"
  attr {
    key: "T"
    value {
      type: DT_UINT8
    }
  }
  attr {
    key: "Tshape"
    value {
      type: DT_INT32
    }
  }
  attr {
    key: "_output_shapes"
    value {
      list {
        shape {
          dim {
            size: 28
          }
          dim {
            size: 28
          }
        }
      }
    }
  }
}
node {
  name: "Cast_5"
  op: "Cast"
  input: "Reshape_5"
  device: "/device:CPU:0"
  attr {
    key: "DstT"
    value {
      type: DT_HALF
    }
  }
  attr {
    key: "SrcT"
    value {
      type: DT_UINT8
    }
  }
  attr {
    key: "_output_shapes"
    value {
      list {
        shape {
          dim {
            size: 28
          }
          dim {
            size: 28
          }
        }
      }
    }
  }
}
node {
  name: "Const_6"
  op: "Const"
  device: "/device:CPU:0"
  attr {
    key: "_output_shapes"
    value {
      list {
        shape {
          dim {
            size: 784
          }
        }
      }
    }
  }
  attr {
    key: "dtype"
    value {
      type: DT_UINT8
    }
  }
  attr {
    key: "value"
    value {
      tensor {
        dtype: DT_UINT8
        tensor_shape {
          dim {
            size: 784
          }
        }
        tensor_content: "…"
      }
    }
  }
}
node {
  name: "Reshape_6/shape"
  op: "Const"
  device: "/device:CPU:0"
  attr {
    key: "_output_shapes"
    value {
      list {
        shape {
          dim {
            size: 2
          }
        }
      }
    }
  }
  attr {
    key: "dtype"
    value {
      type: DT_INT32
    }
  }
  attr {
    key: "value"
    value {
      tensor {
        dtype: DT_INT32
        tensor_shape {
          dim {
            size: 2
          }
        }
        tensor_content: "\034\000\000\000\034\000\000\000"
      }
    }
  }
}
node {
  name: "Reshape_6"
  op: "Reshape"
  input: "Const_6"
  input: "Reshape_6/shape"
  device: "/device:CPU:0"
  attr {
    key: "T"
    value {
      type: DT_UINT8
    }
  }
  attr {
    key: "Tshape"
    value {
      type: DT_INT32
    }
  }
  attr {
    key: "_output_shapes"
    value {
      list {
        shape {
          dim {
            size: 28
          }
          dim {
            size: 28
          }
        }
      }
    }
  }
}
node {
  name: "Cast_6"
  op: "Cast"
  input: "Reshape_6"
  device: "/device:CPU:0"
  attr {
    key: "DstT"
    value {
      type: DT_HALF
    }
  }
  attr {
    key: "SrcT"
    value {
      type: DT_UINT8
    }
  }
  attr {
    key: "_output_shapes"
    value {
      list {
        shape {
          dim {
            size: 28
          }
          dim {
            size: 28
          }
        }
      }
    }
  }
}
node {
  name: "Const_7"
  op: "Const"
  device: "/device:CPU:0"
  attr {
    key: "_output_shapes"
    value {
      list {
        shape {
          dim {
            size: 784
          }
        }
      }
    }
  }
  attr {
    key: "dtype"
    value {
      type: DT_UINT8
    }
  }
  attr {
    key: "value"
    value {
      tensor {
        dtype: DT_UINT8
        tensor_shape {
          dim {
            size: 784
          }
        }
        tensor_content: "…"
      }
    }
  }
}
node {
  name: "Reshape_7/shape"
  op: "Const"
  device: "/device:CPU:0"
  attr {
    key: "_output_shapes"
    value {
      list {
        shape {
          dim {
            size: 2
          }
        }
      }
    }
  }
  attr {
    key: "dtype"
    value {
      type: DT_INT32
    }
  }
  attr {
    key: "value"
    value {
      tensor {
        dtype: DT_INT32
        tensor_shape {
          dim {
            size: 2
          }
        }
        tensor_content: "\034\000\000\000\034\000\000\000"
      }
    }
  }
}
node {
  name: "Reshape_7"
  op: "Reshape"
  input: "Const_7"
  input: "Reshape_7/shape"
  device: "/device:CPU:0"
  attr {
    key: "T"
    value {
      type: DT_UINT8
    }
  }
  attr {
    key: "Tshape"
    value {
      type: DT_INT32
    }
  }
  attr {
    key: "_output_shapes"
    value {
      list {
        shape {
          dim {
            size: 28
          }
          dim {
            size: 28
          }
        }
      }
    }
  }
}
node {
  name: "Cast_7"
  op: "Cast"
  input: "Reshape_7"
  device: "/device:CPU:0"
  attr {
    key: "DstT"
    value {
      type: DT_HALF
    }
  }
  attr {
    key: "SrcT"
    value {
      type: DT_UINT8
    }
  }
  attr {
    key: "_output_shapes"
    value {
      list {
        shape {
          dim {
            size: 28
          }
          dim {
            size: 28
          }
        }
      }
    }
  }
}
node {
  name: "Const_8"
  op: "Const"
  device: "/device:CPU:0"
  attr {
    key: "_output_shapes"
    value {
      list {
        shape {
          dim {
            size: 784
          }
        }
      }
    }
  }
  attr {
    key: "dtype"
    value {
      type: DT_UINT8
    }
  }
  attr {
    key: "value"
    value {
      tensor {
        dtype: DT_UINT8
        tensor_shape {
          dim {
            size: 784
          }
        }
        tensor_content: "…"
      }
    }
  }
}
node {
  name: "Reshape_8/shape"
  op: "Const"
  device: "/device:CPU:0"
  attr {
    key: "_output_shapes"
    value {
      list {
        shape {
          dim {
            size: 2
          }
        }
      }
    }
  }
  attr {
    key: "dtype"
    value {
      type: DT_INT32
    }
  }
  attr {
    key: "value"
    value {
      tensor {
        dtype: DT_INT32
        tensor_shape {
          dim {
            size: 2
          }
        }
        tensor_content: "\034\000\000\000\034\000\000\000"
      }
    }
  }
}
node {
  name: "Reshape_8"
  op: "Reshape"
  input: "Const_8"
  input: "Reshape_8/shape"
  device: "/device:CPU:0"
  attr {
    key: "T"
    value {
      type: DT_UINT8
    }
  }
  attr {
    key: "Tshape"
    value {
      type: DT_INT32
    }
  }
  attr {
    key: "_output_shapes"
    value {
      list {
        shape {
          dim {
            size: 28
          }
          dim {
            size: 28
          }
        }
      }
    }
  }
}
node {
  name: "Cast_8"
  op: "Cast"
  input: "Reshape_8"
  device: "/device:CPU:0"
  attr {
    key: "DstT"
    value {
      type: DT_HALF
    }
  }
  attr {
    key: "SrcT"
    value {
      type: DT_UINT8
    }
  }
  attr {
    key: "_output_shapes"
    value {
      list {
        shape {
          dim {
            size: 28
          }
          dim {
            size: 28
          }
        }
      }
    }
  }
}
node {
  name: "Const_9"
  op: "Const"
  device: "/device:CPU:0"
  attr {
    key: "_output_shapes"
    value {
      list {
        shape {
          dim {
            size: 784
          }
        }
      }
    }
  }
  attr {
    key: "dtype"
    value {
      type: DT_UINT8
    }
  }
  attr {
    key: "value"
    value {
      tensor {
        dtype: DT_UINT8
        tensor_shape {
          dim {
            size: 784
          }
        }
        tensor_content: "…"
      }
    }
  }
}
node {
  name: "Reshape_9/shape"
  op: "Const"
  device: "/device:CPU:0"
  attr {
    key: "_output_shapes"
    value {
      list {
        shape {
          dim {
            size: 2
          }
        }
      }
    }
  }
  attr {
    key: "dtype"
    value {
      type: DT_INT32
    }
  }
  attr {
    key: "value"
    value {
      tensor {
        dtype: DT_INT32
        tensor_shape {
          dim {
            size: 2
          }
        }
        tensor_content: "\034\000\000\000\034\000\000\000"
      }
    }
  }
}
node {
  name: "Reshape_9"
  op: "Reshape"
  input: "Const_9"
  input: "Reshape_9/shape"
  device: "/device:CPU:0"
  attr {
    key: "T"
    value {
      type: DT_UINT8
    }
  }
  attr {
    key: "Tshape"
    value {
      type: DT_INT32
    }
  }
  attr {
    key: "_output_shapes"
    value {
      list {
        shape {
          dim {
            size: 28
          }
          dim {
            size: 28
          }
        }
      }
    }
  }
}
node {
  name: "Cast_9"
  op: "Cast"
  input: "Reshape_9"
  device: "/device:CPU:0"
  attr {
    key: "DstT"
    value {
      type: DT_HALF
    }
  }
  attr {
    key: "SrcT"
    value {
      type: DT_UINT8
    }
  }
  attr {
    key: "_output_shapes"
    value {
      list {
        shape {
          dim {
            size: 28
          }
          dim {
            size: 28
          }
        }
      }
    }
  }
}
node {
  name: "Const_10"
  op: "Const"
  device: "/device:CPU:0"
  attr {
    key: "_output_shapes"
    value {
      list {
        shape {
          dim {
            size: 784
          }
        }
      }
    }
  }
  attr {
    key: "dtype"
    value {
      type: DT_UINT8
    }
  }
  attr {
    key: "value"
    value {
      tensor {
        dtype: DT_UINT8
        tensor_shape {
          dim {
            size: 784
          }
        }
        tensor_content: "…"
      }
    }
  }
}
node {
  name: "Reshape_10/shape"
  op: "Const"
  device: "/device:CPU:0"
  attr {
    key: "_output_shapes"
    value {
      list {
        shape {
          dim {
            size: 2
          }
        }
      }
    }
  }
  attr {
    key: "dtype"
    value {
      type: DT_INT32
    }
  }
  attr {
    key: "value"
    value {
      tensor {
        dtype: DT_INT32
        tensor_shape {
          dim {
            size: 2
          }
        }
        tensor_content: "\034\000\000\000\034\000\000\000"
      }
    }
  }
}
node {
  name: "Reshape_10"
  op: "Reshape"
  input: "Const_10"
  input: "Reshape_10/shape"
  device: "/device:CPU:0"
  attr {
    key: "T"
    value {
      type: DT_UINT8
    }
  }
  attr {
    key: "Tshape"
    value {
      type: DT_INT32
    }
  }
  attr {
    key: "_output_shapes"
    value {
      list {
        shape {
          dim {
            size: 28
          }
          dim {
            size: 28
          }
        }
      }
    }
  }
}
node {
  name: "Cast_10"
  op: "Cast"
  input: "Reshape_10"
  device: "/device:CPU:0"
  attr {
    key: "DstT"
    value {
      type: DT_HALF
    }
  }
  attr {
    key: "SrcT"
    value {
      type: DT_UINT8
    }
  }
  attr {
    key: "_output_shapes"
    value {
      list {
        shape {
          dim {
            size: 28
          }
          dim {
            size: 28
          }
        }
      }
    }
  }
}
node {
  name: "Const_11"
  op: "Const"
  device: "/device:CPU:0"
  attr {
    key: "_output_shapes"
    value {
      list {
        shape {
          dim {
            size: 784
          }
        }
      }
    }
  }
  attr {
    key: "dtype"
    value {
      type: DT_UINT8
    }
  }
  attr {
    key: "value"
    value {
      tensor {
        dtype: DT_UINT8
        tensor_shape {
          dim {
            size: 784
          }
        }
        tensor_content: "…"
      }
    }
  }
}
node {
  name: "Reshape_11/shape"
  op: "Const"
  device: "/device:CPU:0"
  attr {
    key: "_output_shapes"
    value {
      list {
        shape {
          dim {
            size: 2
          }
        }
      }
    }
  }
  attr {
    key: "dtype"
    value {
      type: DT_INT32
    }
  }
  attr {
    key: "value"
    value {
      tensor {
        dtype: DT_INT32
        tensor_shape {
          dim {
            size: 2
          }
        }
        tensor_content: "\034\000\000\000\034\000\000\000"
      }
    }
  }
}
node {
  name: "Reshape_11"
  op: "Reshape"
  input: "Const_11"
  input: "Reshape_11/shape"
  device: "/device:CPU:0"
  attr {
    key: "T"
    value {
      type: DT_UINT8
    }
  }
  attr {
    key: "Tshape"
    value {
      type: DT_INT32
    }
  }
  attr {
    key: "_output_shapes"
    value {
      list {
        shape {
          dim {
            size: 28
          }
          dim {
            size: 28
          }
        }
      }
    }
  }
}
node {
  name: "Cast_11"
  op: "Cast"
  input: "Reshape_11"
  device: "/device:CPU:0"
  attr {
    key: "DstT"
    value {
      type: DT_HALF
    }
  }
  attr {
    key: "SrcT"
    value {
      type: DT_UINT8
    }
  }
  attr {
    key: "_output_shapes"
    value {
      list {
        shape {
          dim {
            size: 28
          }
          dim {
            size: 28
          }
        }
      }
    }
  }
}
node {
  name: "Const_12"
  op: "Const"
  device: "/device:CPU:0"
  attr {
    key: "_output_shapes"
    value {
      list {
        shape {
          dim {
            size: 784
          }
        }
      }
    }
  }
  attr {
    key: "dtype"
    value {
      type: DT_UINT8
    }
  }
  attr {
    key: "value"
    value {
      tensor {
        dtype: DT_UINT8
        tensor_shape {
          dim {
            size: 784
          }
        }
        tensor_content: "…"
      }
    }
  }
}
node {
  name: "Reshape_12/shape"
  op: "Const"
  device: "/device:CPU:0"
  attr {
    key: "_output_shapes"
    value {
      list {
        shape {
          dim {
            size: 2
          }
        }
      }
    }
  }
  attr {
    key: "dtype"
    value {
      type: DT_INT32
    }
  }
  attr {
    key: "value"
    value {
      tensor {
        dtype: DT_INT32
        tensor_shape {
          dim {
            size: 2
          }
        }
        tensor_content: "\034\000\000\000\034\000\000\000"
      }
    }
  }
}
node {
  name: "Reshape_12"
  op: "Reshape"
  input: "Const_12"
  input: "Reshape_12/shape"
  device: "/device:CPU:0"
  attr {
    key: "T"
    value {
      type: DT_UINT8
    }
  }
  attr {
    key: "Tshape"
    value {
      type: DT_INT32
    }
  }
  attr {
    key: "_output_shapes"
    value {
      list {
        shape {
          dim {
            size: 28
          }
          dim {
            size: 28
          }
        }
      }
    }
  }
}
node {
  name: "Cast_12"
  op: "Cast"
  input: "Reshape_12"
  device: "/device:CPU:0"
  attr {
    key: "DstT"
    value {
      type: DT_HALF
    }
  }
  attr {
    key: "SrcT"
    value {
      type: DT_UINT8
    }
  }
  attr {
    key: "_output_shapes"
    value {
      list {
        shape {
          dim {
            size: 28
          }
          dim {
            size: 28
          }
        }
      }
    }
  }
}
node {
  name: "Const_13"
  op: "Const"
  device: "/device:CPU:0"
  attr {
    key: "_output_shapes"
    value {
      list {
        shape {
          dim {
            size: 784
          }
        }
      }
    }
  }
  attr {
    key: "dtype"
    value {
      type: DT_UINT8
    }
  }
  attr {
    key: "value"
    value {
      tensor {
        dtype: DT_UINT8
        tensor_shape {
          dim {
            size: 784
          }
        }
        tensor_content: "…"
      }
    }
  }
}
node {
  name: "Reshape_13/shape"
  op: "Const"
  device: "/device:CPU:0"
  attr {
    key: "_output_shapes"
    value {
      list {
        shape {
          dim {
            size: 2
          }
        }
      }
    }
  }
  attr {
    key: "dtype"
    value {
      type: DT_INT32
    }
  }
  attr {
    key: "value"
    value {
      tensor {
        dtype: DT_INT32
        tensor_shape {
          dim {
            size: 2
          }
        }
        tensor_content: "\034\000\000\000\034\000\000\000"
      }
    }
  }
}
node {
  name: "Reshape_13"
  op: "Reshape"
  input: "Const_13"
  input: "Reshape_13/shape"
  device: "/device:CPU:0"
  attr {
    key: "T"
    value {
      type: DT_UINT8
    }
  }
  attr {
    key: "Tshape"
    value {
      type: DT_INT32
    }
  }
  attr {
    key: "_output_shapes"
    value {
      list {
        shape {
          dim {
            size: 28
          }
          dim {
            size: 28
          }
        }
      }
    }
  }
}
node {
  name: "Cast_13"
  op: "Cast"
  input: "Reshape_13"
  device: "/device:CPU:0"
  attr {
    key: "DstT"
    value {
      type: DT_HALF
    }
  }
  attr {
    key: "SrcT"
    value {
      type: DT_UINT8
    }
  }
  attr {
    key: "_output_shapes"
    value {
      list {
        shape {
          dim {
            size: 28
          }
          dim {
            size: 28
          }
        }
      }
    }
  }
}
node {
  name: "Const_14"
  op: "Const"
  device: "/device:CPU:0"
  attr {
    key: "_output_shapes"
    value {
      list {
        shape {
          dim {
            size: 784
          }
        }
      }
    }
  }
  attr {
    key: "dtype"
    value {
      type: DT_UINT8
    }
  }
  attr {
    key: "value"
    value {
      tensor {
        dtype: DT_UINT8
        tensor_shape {
          dim {
            size: 784
          }
        }
        tensor_content: "…"
      }
    }
  }
}
node {
  name: "Reshape_14/shape"
  op: "Const"
  device: "/device:CPU:0"
  attr {
    key: "_output_shapes"
    value {
      list {
        shape {
          dim {
            size: 2
          }
        }
      }
    }
  }
  attr {
    key: "dtype"
    value {
      type: DT_INT32
    }
  }
  attr {
    key: "value"
    value {
      tensor {
        dtype: DT_INT32
        tensor_shape {
          dim {
            size: 2
          }
        }
        tensor_content: "\034\000\000\000\034\000\000\000"
      }
    }
  }
}
node {
  name: "Reshape_14"
  op: "Reshape"
  input: "Const_14"
  input: "Reshape_14/shape"
  device: "/device:CPU:0"
  attr {
    key: "T"
    value {
      type: DT_UINT8
    }
  }
  attr {
    key: "Tshape"
    value {
      type: DT_INT32
    }
  }
  attr {
    key: "_output_shapes"
    value {
      list {
        shape {
          dim {
            size: 28
          }
          dim {
            size: 28
          }
        }
      }
    }
  }
}
node {
  name: "Cast_14"
  op: "Cast"
  input: "Reshape_14"
  device: "/device:CPU:0"
  attr {
    key: "DstT"
    value {
      type: DT_HALF
    }
  }
  attr {
    key: "SrcT"
    value {
      type: DT_UINT8
    }
  }
  attr {
    key: "_output_shapes"
    value {
      list {
        shape {
          dim {
            size: 28
          }
          dim {
            size: 28
          }
        }
      }
    }
  }
}
node {
  name: "Const_15"
  op: "Const"
  device: "/device:CPU:0"
  attr {
    key: "_output_shapes"
    value {
      list {
        shape {
          dim {
            size: 784
          }
        }
      }
    }
  }
  attr {
    key: "dtype"
    value {
      type: DT_UINT8
    }
  }
  attr {
    key: "value"
    value {
      tensor {
        dtype: DT_UINT8
        tensor_shape {
          dim {
            size: 784
          }
        }
        tensor_content: "…"
      }
    }
  }
}
node {
  name: "Reshape_15/shape"
  op: "Const"
  device: "/device:CPU:0"
  attr {
    key: "_output_shapes"
    value {
      list {
        shape {
          dim {
            size: 2
          }
        }
      }
    }
  }
  attr {
    key: "dtype"
    value {
      type: DT_INT32
    }
  }
  attr {
    key: "value"
    value {
      tensor {
        dtype: DT_INT32
        tensor_shape {
          dim {
            size: 2
          }
        }
        tensor_content: "\034\000\000\000\034\000\000\000"
      }
    }
  }
}
node {
  name: "Reshape_15"
  op: "Reshape"
  input: "Const_15"
  input: "Reshape_15/shape"
  device: "/device:CPU:0"
  attr {
    key: "T"
    value {
      type: DT_UINT8
    }
  }
  attr {
    key: "Tshape"
    value {
      type: DT_INT32
    }
  }
  attr {
    key: "_output_shapes"
    value {
      list {
        shape {
          dim {
            size: 28
          }
          dim {
            size: 28
          }
        }
      }
    }
  }
}
node {
  name: "Cast_15"
  op: "Cast"
  input: "Reshape_15"
  device: "/device:CPU:0"
  attr {
    key: "DstT"
    value {
      type: DT_HALF
    }
  }
  attr {
    key: "SrcT"
    value {
      type: DT_UINT8
    }
  }
  attr {
    key: "_output_shapes"
    value {
      list {
        shape {
          dim {
            size: 28
          }
          dim {
            size: 28
          }
        }
      }
    }
  }
}
node {
  name: "Const_16"
  op: "Const"
  device: "/device:CPU:0"
  attr {
    key: "_output_shapes"
    value {
      list {
        shape {
          dim {
            size: 784
          }
        }
      }
    }
  }
  attr {
    key: "dtype"
    value {
      type: DT_UINT8
    }
  }
  attr {
    key: "value"
    value {
      tensor {
        dtype: DT_UINT8
        tensor_shape {
          dim {
            size: 784
          }
        }
        tensor_content: "…"
      }
    }
  }
}
node {
  name: "Reshape_16/shape"
  op: "Const"
  device: "/device:CPU:0"
  attr {
    key: "_output_shapes"
    value {
      list {
        shape {
          dim {
            size: 2
          }
        }
      }
    }
  }
  attr {
    key: "dtype"
    value {
      type: DT_INT32
    }
  }
  attr {
    key: "value"
    value {
      tensor {
        dtype: DT_INT32
        tensor_shape {
          dim {
            size: 2
          }
        }
        tensor_content: "\034\000\000\000\034\000\000\000"
      }
    }
  }
}
node {
  name: "Reshape_16"
  op: "Reshape"
  input: "Const_16"
  input: "Reshape_16/shape"
  device: "/device:CPU:0"
  attr {
    key: "T"
    value {
      type: DT_UINT8
    }
  }
  attr {
    key: "Tshape"
    value {
      type: DT_INT32
    }
  }
  attr {
    key: "_output_shapes"
    value {
      list {
        shape {
          dim {
            size: 28
          }
          dim {
            size: 28
          }
        }
      }
    }
  }
}
node {
  name: "Cast_16"
  op: "Cast"
  input: "Reshape_16"
  device: "/device:CPU:0"
  attr {
    key: "DstT"
    value {
      type: DT_HALF
    }
  }
  attr {
    key: "SrcT"
    value {
      type: DT_UINT8
    }
  }
  attr {
    key: "_output_shapes"
    value {
      list {
        shape {
          dim {
            size: 28
          }
          dim {
            size: 28
          }
        }
      }
    }
  }
}
node {
  name: "Const_17"
  op: "Const"
  device: "/device:CPU:0"
  attr {
    key: "_output_shapes"
    value {
      list {
        shape {
          dim {
            size: 784
          }
        }
      }
    }
  }
  attr {
    key: "dtype"
    value {
      type: DT_UINT8
    }
  }
  attr {
    key: "value"
    value {
      tensor {
        dtype: DT_UINT8
        tensor_shape {
          dim {
            size: 784
          }
        }
        tensor_content: "…"
      }
    }
  }
}
node {
  name: "Reshape_17/shape"
  op: "Const"
  device: "/device:CPU:0"
  attr {
    key: "_output_shapes"
    value {
      list {
        shape {
          dim {
            size: 2
          }
        }
      }
    }
  }
  attr {
    key: "dtype"
    value {
      type: DT_INT32
    }
  }
  attr {
    key: "value"
    value {
      tensor {
        dtype: DT_INT32
        tensor_shape {
          dim {
            size: 2
          }
        }
        tensor_content: "\034\000\000\000\034\000\000\000"
      }
    }
  }
}
node {
  name: "Reshape_17"
  op: "Reshape"
  input: "Const_17"
  input: "Reshape_17/shape"
  device: "/device:CPU:0"
  attr {
    key: "T"
    value {
      type: DT_UINT8
    }
  }
  attr {
    key: "Tshape"
    value {
      type: DT_INT32
    }
  }
  attr {
    key: "_output_shapes"
    value {
      list {
        shape {
          dim {
            size: 28
          }
          dim {
            size: 28
          }
        }
      }
    }
  }
}
node {
  name: "Cast_17"
  op: "Cast"
  input: "Reshape_17"
  device: "/device:CPU:0"
  attr {
    key: "DstT"
    value {
      type: DT_HALF
    }
  }
  attr {
    key: "SrcT"
    value {
      type: DT_UINT8
    }
  }
  attr {
    key: "_output_shapes"
    value {
      list {
        shape {
          dim {
            size: 28
          }
          dim {
            size: 28
          }
        }
      }
    }
  }
}
node {
  name: "Const_18"
  op: "Const"
  device: "/device:CPU:0"
  attr {
    key: "_output_shapes"
    value {
      list {
        shape {
          dim {
            size: 784
          }
        }
      }
    }
  }
  attr {
    key: "dtype"
    value {
      type: DT_UINT8
    }
  }
  attr {
    key: "value"
    value {
      tensor {
        dtype: DT_UINT8
        tensor_shape {
          dim {
            size: 784
          }
        }
        tensor_content: "…"
      }
    }
  }
}
node {
  name: "Reshape_18/shape"
  op: "Const"
  device: "/device:CPU:0"
  attr {
    key: "_output_shapes"
    value {
      list {
        shape {
          dim {
            size: 2
          }
        }
      }
    }
  }
  attr {
    key: "dtype"
    value {
      type: DT_INT32
    }
  }
  attr {
    key: "value"
    value {
      tensor {
        dtype: DT_INT32
        tensor_shape {
          dim {
            size: 2
          }
        }
        tensor_content: "\034\000\000\000\034\000\000\000"
      }
    }
  }
}
node {
  name: "Reshape_18"
  op: "Reshape"
  input: "Const_18"
  input: "Reshape_18/shape"
  device: "/device:CPU:0"
  attr {
    key: "T"
    value {
      type: DT_UINT8
    }
  }
  attr {
    key: "Tshape"
    value {
      type: DT_INT32
    }
  }
  attr {
    key: "_output_shapes"
    value {
      list {
        shape {
          dim {
            size: 28
          }
          dim {
            size: 28
          }
        }
      }
    }
  }
}
node {
  name: "Cast_18"
  op: "Cast"
  input: "Reshape_18"
  device: "/device:CPU:0"
  attr {
    key: "DstT"
    value {
      type: DT_HALF
    }
  }
  attr {
    key: "SrcT"
    value {
      type: DT_UINT8
    }
  }
  attr {
    key: "_output_shapes"
    value {
      list {
        shape {
          dim {
            size: 28
          }
          dim {
            size: 28
          }
        }
      }
    }
  }
}
node {
  name: "Const_19"
  op: "Const"
  device: "/device:CPU:0"
  attr {
    key: "_output_shapes"
    value {
      list {
        shape {
          dim {
            size: 784
          }
        }
      }
    }
  }
  attr {
    key: "dtype"
    value {
      type: DT_UINT8
    }
  }
  attr {
    key: "value"
    value {
      tensor {
        dtype: DT_UINT8
        tensor_shape {
          dim {
            size: 784
          }
        }
        tensor_content: "…"
      }
    }
  }
}
node {
  name: "Reshape_19/shape"
  op: "Const"
  device: "/device:CPU:0"
  attr {
    key: "_output_shapes"
    value {
      list {
        shape {
          dim {
            size: 2
          }
        }
      }
    }
  }
  attr {
    key: "dtype"
    value {
      type: DT_INT32
    }
  }
  attr {
    key: "value"
    value {
      tensor {
        dtype: DT_INT32
        tensor_shape {
          dim {
            size: 2
          }
        }
        tensor_content: "\034\000\000\000\034\000\000\000"
      }
    }
  }
}
node {
  name: "Reshape_19"
  op: "Reshape"
  input: "Const_19"
  input: "Reshape_19/shape"
  device: "/device:CPU:0"
  attr {
    key: "T"
    value {
      type: DT_UINT8
    }
  }
  attr {
    key: "Tshape"
    value {
      type: DT_INT32
    }
  }
  attr {
    key: "_output_shapes"
    value {
      list {
        shape {
          dim {
            size: 28
          }
          dim {
            size: 28
          }
        }
      }
    }
  }
}
node {
  name: "Cast_19"
  op: "Cast"
  input: "Reshape_19"
  device: "/device:CPU:0"
  attr {
    key: "DstT"
    value {
      type: DT_HALF
    }
  }
  attr {
    key: "SrcT"
    value {
      type: DT_UINT8
    }
  }
  attr {
    key: "_output_shapes"
    value {
      list {
        shape {
          dim {
            size: 28
          }
          dim {
            size: 28
          }
        }
      }
    }
  }
}
node {
  name: "Const_20"
  op: "Const"
  device: "/device:CPU:0"
  attr {
    key: "_output_shapes"
    value {
      list {
        shape {
          dim {
            size: 784
          }
        }
      }
    }
  }
  attr {
    key: "dtype"
    value {
      type: DT_UINT8
    }
  }
  attr {
    key: "value"
    value {
      tensor {
        dtype: DT_UINT8
        tensor_shape {
          dim {
            size: 784
          }
        }
        tensor_content: "…"
      }
    }
  }
}
node {
  name: "Reshape_20/shape"
  op: "Const"
  device: "/device:CPU:0"
  attr {
    key: "_output_shapes"
    value {
      list {
        shape {
          dim {
            size: 2
          }
        }
      }
    }
  }
  attr {
    key: "dtype"
    value {
      type: DT_INT32
    }
  }
  attr {
    key: "value"
    value {
      tensor {
        dtype: DT_INT32
        tensor_shape {
          dim {
            size: 2
          }
        }
        tensor_content: "\034\000\000\000\034\000\000\000"
      }
    }
  }
}
node {
  name: "Reshape_20"
  op: "Reshape"
  input: "Const_20"
  input: "Reshape_20/shape"
  device: "/device:CPU:0"
  attr {
    key: "T"
    value {
      type: DT_UINT8
    }
  }
  attr {
    key: "Tshape"
    value {
      type: DT_INT32
    }
  }
  attr {
    key: "_output_shapes"
    value {
      list {
        shape {
          dim {
            size: 28
          }
          dim {
            size: 28
          }
        }
      }
    }
  }
}
node {
  name: "Cast_20"
  op: "Cast"
  input: "Reshape_20"
  device: "/device:CPU:0"
  attr {
    key: "DstT"
    value {
      type: DT_HALF
    }
  }
  attr {
    key: "SrcT"
    value {
      type: DT_UINT8
    }
  }
  attr {
    key: "_output_shapes"
    value {
      list {
        shape {
          dim {
            size: 28
          }
          dim {
            size: 28
          }
        }
      }
    }
  }
}
node {
  name: "Const_21"
  op: "Const"
  device: "/device:CPU:0"
  attr {
    key: "_output_shapes"
    value {
      list {
        shape {
          dim {
            size: 784
          }
        }
      }
    }
  }
  attr {
    key: "dtype"
    value {
      type: DT_UINT8
    }
  }
  attr {
    key: "value"
    value {
      tensor {
        dtype: DT_UINT8
        tensor_shape {
          dim {
            size: 784
          }
        }
        tensor_content: "…"
      }
    }
  }
}
node {
  name: "Reshape_21/shape"
  op: "Const"
  device: "/device:CPU:0"
  attr {
    key: "_output_shapes"
    value {
      list {
        shape {
          dim {
            size: 2
          }
        }
      }
    }
  }
  attr {
    key: "dtype"
    value {
      type: DT_INT32
    }
  }
  attr {
    key: "value"
    value {
      tensor {
        dtype: DT_INT32
        tensor_shape {
          dim {
            size: 2
          }
        }
        tensor_content: "\034\000\000\000\034\000\000\000"
      }
    }
  }
}
node {
  name: "Reshape_21"
  op: "Reshape"
  input: "Const_21"
  input: "Reshape_21/shape"
  device: "/device:CPU:0"
  attr {
    key: "T"
    value {
      type: DT_UINT8
    }
  }
  attr {
    key: "Tshape"
    value {
      type: DT_INT32
    }
  }
  attr {
    key: "_output_shapes"
    value {
      list {
        shape {
          dim {
            size: 28
          }
          dim {
            size: 28
          }
        }
      }
    }
  }
}
node {
  name: "Cast_21"
  op: "Cast"
  input: "Reshape_21"
  device: "/device:CPU:0"
  attr {
    key: "DstT"
    value {
      type: DT_HALF
    }
  }
  attr {
    key: "SrcT"
    value {
      type: DT_UINT8
    }
  }
  attr {
    key: "_output_shapes"
    value {
      list {
        shape {
          dim {
            size: 28
          }
          dim {
            size: 28
          }
        }
      }
    }
  }
}
node {
  name: "Const_22"
  op: "Const"
  device: "/device:CPU:0"
  attr {
    key: "_output_shapes"
    value {
      list {
        shape {
          dim {
            size: 784
          }
        }
      }
    }
  }
  attr {
    key: "dtype"
    value {
      type: DT_UINT8
    }
  }
  attr {
    key: "value"
    value {
      tensor {
        dtype: DT_UINT8
        tensor_shape {
          dim {
            size: 784
          }
        }
        tensor_content: "…"
      }
    }
  }
}
node {
  name: "Reshape_22/shape"
  op: "Const"
  device: "/device:CPU:0"
  attr {
    key: "_output_shapes"
    value {
      list {
        shape {
          dim {
            size: 2
          }
        }
      }
    }
  }
  attr {
    key: "dtype"
    value {
      type: DT_INT32
    }
  }
  attr {
    key: "value"
    value {
      tensor {
        dtype: DT_INT32
        tensor_shape {
          dim {
            size: 2
          }
        }
        tensor_content: "\034\000\000\000\034\000\000\000"
      }
    }
  }
}
node {
  name: "Reshape_22"
  op: "Reshape"
  input: "Const_22"
  input: "Reshape_22/shape"
  device: "/device:CPU:0"
  attr {
    key: "T"
    value {
      type: DT_UINT8
    }
  }
  attr {
    key: "Tshape"
    value {
      type: DT_INT32
    }
  }
  attr {
    key: "_output_shapes"
    value {
      list {
        shape {
          dim {
            size: 28
          }
          dim {
            size: 28
          }
        }
      }
    }
  }
}
node {
  name: "Cast_22"
  op: "Cast"
  input: "Reshape_22"
  device: "/device:CPU:0"
  attr {
    key: "DstT"
    value {
      type: DT_HALF
    }
  }
  attr {
    key: "SrcT"
    value {
      type: DT_UINT8
    }
  }
  attr {
    key: "_output_shapes"
    value {
      list {
        shape {
          dim {
            size: 28
          }
          dim {
            size: 28
          }
        }
      }
    }
  }
}
node {
  name: "Const_23"
  op: "Const"
  device: "/device:CPU:0"
  attr {
    key: "_output_shapes"
    value {
      list {
        shape {
          dim {
            size: 784
          }
        }
      }
    }
  }
  attr {
    key: "dtype"
    value {
      type: DT_UINT8
    }
  }
  attr {
    key: "value"
    value {
      tensor {
        dtype: DT_UINT8
        tensor_shape {
          dim {
            size: 784
          }
        }
        tensor_content: "…"
      }
    }
  }
}
node {
  name: "Reshape_23/shape"
  op: "Const"
  device: "/device:CPU:0"
  attr {
    key: "_output_shapes"
    value {
      list {
        shape {
          dim {
            size: 2
          }
        }
      }
    }
  }
  attr {
    key: "dtype"
    value {
      type: DT_INT32
    }
  }
  attr {
    key: "value"
    value {
      tensor {
        dtype: DT_INT32
        tensor_shape {
          dim {
            size: 2
          }
        }
        tensor_content: "\034\000\000\000\034\000\000\000"
      }
    }
  }
}
node {
  name: "Reshape_23"
  op: "Reshape"
  input: "Const_23"
  input: "Reshape_23/shape"
  device: "/device:CPU:0"
  attr {
    key: "T"
    value {
      type: DT_UINT8
    }
  }
  attr {
    key: "Tshape"
    value {
      type: DT_INT32
    }
  }
  attr {
    key: "_output_shapes"
    value {
      list {
        shape {
          dim {
            size: 28
          }
          dim {
            size: 28
          }
        }
      }
    }
  }
}
node {
  name: "Cast_23"
  op: "Cast"
  input: "Reshape_23"
  device: "/device:CPU:0"
  attr {
    key: "DstT"
    value {
      type: DT_HALF
    }
  }
  attr {
    key: "SrcT"
    value {
      type: DT_UINT8
    }
  }
  attr {
    key: "_output_shapes"
    value {
      list {
        shape {
          dim {
            size: 28
          }
          dim {
            size: 28
          }
        }
      }
    }
  }
}
node {
  name: "Const_24"
  op: "Const"
  device: "/device:CPU:0"
  attr {
    key: "_output_shapes"
    value {
      list {
        shape {
          dim {
            size: 784
          }
        }
      }
    }
  }
  attr {
    key: "dtype"
    value {
      type: DT_UINT8
    }
  }
  attr {
    key: "value"
    value {
      tensor {
        dtype: DT_UINT8
        tensor_shape {
          dim {
            size: 784
          }
        }
        tensor_content: "…"
      }
    }
  }
}
node {
  name: "Reshape_24/shape"
  op: "Const"
  device: "/device:CPU:0"
  attr {
    key: "_output_shapes"
    value {
      list {
        shape {
          dim {
            size: 2
          }
        }
      }
    }
  }
  attr {
    key: "dtype"
    value {
      type: DT_INT32
    }
  }
  attr {
    key: "value"
    value {
      tensor {
        dtype: DT_INT32
        tensor_shape {
          dim {
            size: 2
          }
        }
        tensor_content: "\034\000\000\000\034\000\000\000"
      }
    }
  }
}
node {
  name: "Reshape_24"
  op: "Reshape"
  input: "Const_24"
  input: "Reshape_24/shape"
  device: "/device:CPU:0"
  attr {
    key: "T"
    value {
      type: DT_UINT8
    }
  }
  attr {
    key: "Tshape"
    value {
      type: DT_INT32
    }
  }
  attr {
    key: "_output_shapes"
    value {
      list {
        shape {
          dim {
            size: 28
          }
          dim {
            size: 28
          }
        }
      }
    }
  }
}
node {
  name: "Cast_24"
  op: "Cast"
  input: "Reshape_24"
  device: "/device:CPU:0"
  attr {
    key: "DstT"
    value {
      type: DT_HALF
    }
  }
  attr {
    key: "SrcT"
    value {
      type: DT_UINT8
    }
  }
  attr {
    key: "_output_shapes"
    value {
      list {
        shape {
          dim {
            size: 28
          }
          dim {
            size: 28
          }
        }
      }
    }
  }
}
node {
  name: "Const_25"
  op: "Const"
  device: "/device:CPU:0"
  attr {
    key: "_output_shapes"
    value {
      list {
        shape {
          dim {
            size: 784
          }
        }
      }
    }
  }
  attr {
    key: "dtype"
    value {
      type: DT_UINT8
    }
  }
  attr {
    key: "value"
    value {
      tensor {
        dtype: DT_UINT8
        tensor_shape {
          dim {
            size: 784
          }
        }
        tensor_content: "…"
      }
    }
  }
}
node {
  name: "Reshape_25/shape"
  op: "Const"
  device: "/device:CPU:0"
  attr {
    key: "_output_shapes"
    value {
      list {
        shape {
          dim {
            size: 2
          }
        }
      }
    }
  }
  attr {
    key: "dtype"
    value {
      type: DT_INT32
    }
  }
  attr {
    key: "value"
    value {
      tensor {
        dtype: DT_INT32
        tensor_shape {
          dim {
            size: 2
          }
        }
        tensor_content: "\034\000\000\000\034\000\000\000"
      }
    }
  }
}
node {
  name: "Reshape_25"
  op: "Reshape"
  input: "Const_25"
  input: "Reshape_25/shape"
  device: "/device:CPU:0"
  attr {
    key: "T"
    value {
      type: DT_UINT8
    }
  }
  attr {
    key: "Tshape"
    value {
      type: DT_INT32
    }
  }
  attr {
    key: "_output_shapes"
    value {
      list {
        shape {
          dim {
            size: 28
          }
          dim {
            size: 28
          }
        }
      }
    }
  }
}
node {
  name: "Cast_25"
  op: "Cast"
  input: "Reshape_25"
  device: "/device:CPU:0"
  attr {
    key: "DstT"
    value {
      type: DT_HALF
    }
  }
  attr {
    key: "SrcT"
    value {
      type: DT_UINT8
    }
  }
  attr {
    key: "_output_shapes"
    value {
      list {
        shape {
          dim {
            size: 28
          }
          dim {
            size: 28
          }
        }
      }
    }
  }
}
node {
  name: "Const_26"
  op: "Const"
  device: "/device:CPU:0"
  attr {
    key: "_output_shapes"
    value {
      list {
        shape {
          dim {
            size: 784
          }
        }
      }
    }
  }
  attr {
    key: "dtype"
    value {
      type: DT_UINT8
    }
  }
  attr {
    key: "value"
    value {
      tensor {
        dtype: DT_UINT8
        tensor_shape {
          dim {
            size: 784
          }
        }
        tensor_content: "…"
      }
    }
  }
}
node {
  name: "Reshape_26/shape"
  op: "Const"
  device: "/device:CPU:0"
  attr {
    key: "_output_shapes"
    value {
      list {
        shape {
          dim {
            size: 2
          }
        }
      }
    }
  }
  attr {
    key: "dtype"
    value {
      type: DT_INT32
    }
  }
  attr {
    key: "value"
    value {
      tensor {
        dtype: DT_INT32
        tensor_shape {
          dim {
            size: 2
          }
        }
        tensor_content: "\034\000\000\000\034\000\000\000"
      }
    }
  }
}
node {
  name: "Reshape_26"
  op: "Reshape"
  input: "Const_26"
  input: "Reshape_26/shape"
  device: "/device:CPU:0"
  attr {
    key: "T"
    value {
      type: DT_UINT8
    }
  }
  attr {
    key: "Tshape"
    value {
      type: DT_INT32
    }
  }
  attr {
    key: "_output_shapes"
    value {
      list {
        shape {
          dim {
            size: 28
          }
          dim {
            size: 28
          }
        }
      }
    }
  }
}
node {
  name: "Cast_26"
  op: "Cast"
  input: "Reshape_26"
  device: "/device:CPU:0"
  attr {
    key: "DstT"
    value {
      type: DT_HALF
    }
  }
  attr {
    key: "SrcT"
    value {
      type: DT_UINT8
    }
  }
  attr {
    key: "_output_shapes"
    value {
      list {
        shape {
          dim {
            size: 28
          }
          dim {
            size: 28
          }
        }
      }
    }
  }
}
node {
  name: "Const_27"
  op: "Const"
  device: "/device:CPU:0"
  attr {
    key: "_output_shapes"
    value {
      list {
        shape {
          dim {
            size: 784
          }
        }
      }
    }
  }
  attr {
    key: "dtype"
    value {
      type: DT_UINT8
    }
  }
  attr {
    key: "value"
    value {
      tensor {
        dtype: DT_UINT8
        tensor_shape {
          dim {
            size: 784
          }
        }
        tensor_content: "…"
      }
    }
  }
}
node {
  name: "Reshape_27/shape"
  op: "Const"
  device: "/device:CPU:0"
  attr {
    key: "_output_shapes"
    value {
      list {
        shape {
          dim {
            size: 2
          }
        }
      }
    }
  }
  attr {
    key: "dtype"
    value {
      type: DT_INT32
    }
  }
  attr {
    key: "value"
    value {
      tensor {
        dtype: DT_INT32
        tensor_shape {
          dim {
            size: 2
          }
        }
        tensor_content: "\034\000\000\000\034\000\000\000"
      }
    }
  }
}
node {
  name: "Reshape_27"
  op: "Reshape"
  input: "Const_27"
  input: "Reshape_27/shape"
  device: "/device:CPU:0"
  attr {
    key: "T"
    value {
      type: DT_UINT8
    }
  }
  attr {
    key: "Tshape"
    value {
      type: DT_INT32
    }
  }
  attr {
    key: "_output_shapes"
    value {
      list {
        shape {
          dim {
            size: 28
          }
          dim {
            size: 28
          }
        }
      }
    }
  }
}
node {
  name: "Cast_27"
  op: "Cast"
  input: "Reshape_27"
  device: "/device:CPU:0"
  attr {
    key: "DstT"
    value {
      type: DT_HALF
    }
  }
  attr {
    key: "SrcT"
    value {
      type: DT_UINT8
    }
  }
  attr {
    key: "_output_shapes"
    value {
      list {
        shape {
          dim {
            size: 28
          }
          dim {
            size: 28
          }
        }
      }
    }
  }
}
node {
  name: "Const_28"
  op: "Const"
  device: "/device:CPU:0"
  attr {
    key: "_output_shapes"
    value {
      list {
        shape {
          dim {
            size: 784
          }
        }
      }
    }
  }
  attr {
    key: "dtype"
    value {
      type: DT_UINT8
    }
  }
  attr {
    key: "value"
    value {
      tensor {
        dtype: DT_UINT8
        tensor_shape {
          dim {
            size: 784
          }
        }
        tensor_content: "…"
      }
    }
  }
}
node {
  name: "Reshape_28/shape"
  op: "Const"
  device: "/device:CPU:0"
  attr {
    key: "_output_shapes"
    value {
      list {
        shape {
          dim {
            size: 2
          }
        }
      }
    }
  }
  attr {
    key: "dtype"
    value {
      type: DT_INT32
    }
  }
  attr {
    key: "value"
    value {
      tensor {
        dtype: DT_INT32
        tensor_shape {
          dim {
            size: 2
          }
        }
        tensor_content: "\034\000\000\000\034\000\000\000"
      }
    }
  }
}
node {
  name: "Reshape_28"
  op: "Reshape"
  input: "Const_28"
  input: "Reshape_28/shape"
  device: "/device:CPU:0"
  attr {
    key: "T"
    value {
      type: DT_UINT8
    }
  }
  attr {
    key: "Tshape"
    value {
      type: DT_INT32
    }
  }
  attr {
    key: "_output_shapes"
    value {
      list {
        shape {
          dim {
            size: 28
          }
          dim {
            size: 28
          }
        }
      }
    }
  }
}
node {
  name: "Cast_28"
  op: "Cast"
  input: "Reshape_28"
  device: "/device:CPU:0"
  attr {
    key: "DstT"
    value {
      type: DT_HALF
    }
  }
  attr {
    key: "SrcT"
    value {
      type: DT_UINT8
    }
  }
  attr {
    key: "_output_shapes"
    value {
      list {
        shape {
          dim {
            size: 28
          }
          dim {
            size: 28
          }
        }
      }
    }
  }
}
node {
  name: "Const_29"
  op: "Const"
  device: "/device:CPU:0"
  attr {
    key: "_output_shapes"
    value {
      list {
        shape {
          dim {
            size: 784
          }
        }
      }
    }
  }
  attr {
    key: "dtype"
    value {
      type: DT_UINT8
    }
  }
  attr {
    key: "value"
    value {
      tensor {
        dtype: DT_UINT8
        tensor_shape {
          dim {
            size: 784
          }
        }
        tensor_content: "…"
      }
    }
  }
}
node {
  name: "Reshape_29/shape"
  op: "Const"
  device: "/device:CPU:0"
  attr {
    key: "_output_shapes"
    value {
      list {
        shape {
          dim {
            size: 2
          }
        }
      }
    }
  }
  attr {
    key: "dtype"
    value {
      type: DT_INT32
    }
  }
  attr {
    key: "value"
    value {
      tensor {
        dtype: DT_INT32
        tensor_shape {
          dim {
            size: 2
          }
        }
        tensor_content: "\034\000\000\000\034\000\000\000"
      }
    }
  }
}
node {
  name: "Reshape_29"
  op: "Reshape"
  input: "Const_29"
  input: "Reshape_29/shape"
  device: "/device:CPU:0"
  attr {
    key: "T"
    value {
      type: DT_UINT8
    }
  }
  attr {
    key: "Tshape"
    value {
      type: DT_INT32
    }
  }
  attr {
    key: "_output_shapes"
    value {
      list {
        shape {
          dim {
            size: 28
          }
          dim {
            size: 28
          }
        }
      }
    }
  }
}
node {
  name: "Cast_29"
  op: "Cast"
  input: "Reshape_29"
  device: "/device:CPU:0"
  attr {
    key: "DstT"
    value {
      type: DT_HALF
    }
  }
  attr {
    key: "SrcT"
    value {
      type: DT_UINT8
    }
  }
  attr {
    key: "_output_shapes"
    value {
      list {
        shape {
          dim {
            size: 28
          }
          dim {
            size: 28
          }
        }
      }
    }
  }
}
node {
  name: "Const_30"
  op: "Const"
  device: "/device:CPU:0"
  attr {
    key: "_output_shapes"
    value {
      list {
        shape {
          dim {
            size: 784
          }
        }
      }
    }
  }
  attr {
    key: "dtype"
    value {
      type: DT_UINT8
    }
  }
  attr {
    key: "value"
    value {
      tensor {
        dtype: DT_UINT8
        tensor_shape {
          dim {
            size: 784
          }
        }
        tensor_content: "…"
      }
    }
  }
}
node {
  name: "Reshape_30/shape"
  op: "Const"
  device: "/device:CPU:0"
  attr {
    key: "_output_shapes"
    value {
      list {
        shape {
          dim {
            size: 2
          }
        }
      }
    }
  }
  attr {
    key: "dtype"
    value {
      type: DT_INT32
    }
  }
  attr {
    key: "value"
    value {
      tensor {
        dtype: DT_INT32
        tensor_shape {
          dim {
            size: 2
          }
        }
        tensor_content: "\034\000\000\000\034\000\000\000"
      }
    }
  }
}
node {
  name: "Reshape_30"
  op: "Reshape"
  input: "Const_30"
  input: "Reshape_30/shape"
  device: "/device:CPU:0"
  attr {
    key: "T"
    value {
      type: DT_UINT8
    }
  }
  attr {
    key: "Tshape"
    value {
      type: DT_INT32
    }
  }
  attr {
    key: "_output_shapes"
    value {
      list {
        shape {
          dim {
            size: 28
          }
          dim {
            size: 28
          }
        }
      }
    }
  }
}
node {
  name: "Cast_30"
  op: "Cast"
  input: "Reshape_30"
  device: "/device:CPU:0"
  attr {
    key: "DstT"
    value {
      type: DT_HALF
    }
  }
  attr {
    key: "SrcT"
    value {
      type: DT_UINT8
    }
  }
  attr {
    key: "_output_shapes"
    value {
      list {
        shape {
          dim {
            size: 28
          }
          dim {
            size: 28
          }
        }
      }
    }
  }
}
node {
  name: "Const_31"
  op: "Const"
  device: "/device:CPU:0"
  attr {
    key: "_output_shapes"
    value {
      list {
        shape {
          dim {
            size: 784
          }
        }
      }
    }
  }
  attr {
    key: "dtype"
    value {
      type: DT_UINT8
    }
  }
  attr {
    key: "value"
    value {
      tensor {
        dtype: DT_UINT8
        tensor_shape {
          dim {
            size: 784
          }
        }
        tensor_content: "…"
      }
    }
  }
}
node {
  name: "Reshape_31/shape"
  op: "Const"
  device: "/device:CPU:0"
  attr {
    key: "_output_shapes"
    value {
      list {
        shape {
          dim {
            size: 2
          }
        }
      }
    }
  }
  attr {
    key: "dtype"
    value {
      type: DT_INT32
    }
  }
  attr {
    key: "value"
    value {
      tensor {
        dtype: DT_INT32
        tensor_shape {
          dim {
            size: 2
          }
        }
        tensor_content: "\034\000\000\000\034\000\000\000"
      }
    }
  }
}
node {
  name: "Reshape_31"
  op: "Reshape"
  input: "Const_31"
  input: "Reshape_31/shape"
  device: "/device:CPU:0"
  attr {
    key: "T"
    value {
      type: DT_UINT8
    }
  }
  attr {
    key: "Tshape"
    value {
      type: DT_INT32
    }
  }
  attr {
    key: "_output_shapes"
    value {
      list {
        shape {
          dim {
            size: 28
          }
          dim {
            size: 28
          }
        }
      }
    }
  }
}
node {
  name: "Cast_31"
  op: "Cast"
  input: "Reshape_31"
  device: "/device:CPU:0"
  attr {
    key: "DstT"
    value {
      type: DT_HALF
    }
  }
  attr {
    key: "SrcT"
    value {
      type: DT_UINT8
    }
  }
  attr {
    key: "_output_shapes"
    value {
      list {
        shape {
          dim {
            size: 28
          }
          dim {
            size: 28
          }
        }
      }
    }
  }
}
node {
  name: "Const_32"
  op: "Const"
  device: "/device:CPU:0"
  attr {
    key: "_output_shapes"
    value {
      list {
        shape {
          dim {
            size: 784
          }
        }
      }
    }
  }
  attr {
    key: "dtype"
    value {
      type: DT_UINT8
    }
  }
  attr {
    key: "value"
    value {
      tensor {
        dtype: DT_UINT8
        tensor_shape {
          dim {
            size: 784
          }
        }
        tensor_content: "…"
      }
    }
  }
}
node {
  name: "Reshape_32/shape"
  op: "Const"
  device: "/device:CPU:0"
  attr {
    key: "_output_shapes"
    value {
      list {
        shape {
          dim {
            size: 2
          }
        }
      }
    }
  }
  attr {
    key: "dtype"
    value {
      type: DT_INT32
    }
  }
  attr {
    key: "value"
    value {
      tensor {
        dtype: DT_INT32
        tensor_shape {
          dim {
            size: 2
          }
        }
        tensor_content: "\034\000\000\000\034\000\000\000"
      }
    }
  }
}
node {
  name: "Reshape_32"
  op: "Reshape"
  input: "Const_32"
  input: "Reshape_32/shape"
  device: "/device:CPU:0"
  attr {
    key: "T"
    value {
      type: DT_UINT8
    }
  }
  attr {
    key: "Tshape"
    value {
      type: DT_INT32
    }
  }
  attr {
    key: "_output_shapes"
    value {
      list {
        shape {
          dim {
            size: 28
          }
          dim {
            size: 28
          }
        }
      }
    }
  }
}
node {
  name: "Cast_32"
  op: "Cast"
  input: "Reshape_32"
  device: "/device:CPU:0"
  attr {
    key: "DstT"
    value {
      type: DT_HALF
    }
  }
  attr {
    key: "SrcT"
    value {
      type: DT_UINT8
    }
  }
  attr {
    key: "_output_shapes"
    value {
      list {
        shape {
          dim {
            size: 28
          }
          dim {
            size: 28
          }
        }
      }
    }
  }
}
node {
  name: "Const_33"
  op: "Const"
  device: "/device:CPU:0"
  attr {
    key: "_output_shapes"
    value {
      list {
        shape {
          dim {
            size: 784
          }
        }
      }
    }
  }
  attr {
    key: "dtype"
    value {
      type: DT_UINT8
    }
  }
  attr {
    key: "value"
    value {
      tensor {
        dtype: DT_UINT8
        tensor_shape {
          dim {
            size: 784
          }
        }
        tensor_content: "…"
      }
    }
  }
}
node {
  name: "Reshape_33/shape"
  op: "Const"
  device: "/device:CPU:0"
  attr {
    key: "_output_shapes"
    value {
      list {
        shape {
          dim {
            size: 2
          }
        }
      }
    }
  }
  attr {
    key: "dtype"
    value {
      type: DT_INT32
    }
  }
  attr {
    key: "value"
    value {
      tensor {
        dtype: DT_INT32
        tensor_shape {
          dim {
            size: 2
          }
        }
        tensor_content: "\034\000\000\000\034\000\000\000"
      }
    }
  }
}
node {
  name: "Reshape_33"
  op: "Reshape"
  input: "Const_33"
  input: "Reshape_33/shape"
  device: "/device:CPU:0"
  attr {
    key: "T"
    value {
      type: DT_UINT8
    }
  }
  attr {
    key: "Tshape"
    value {
      type: DT_INT32
    }
  }
  attr {
    key: "_output_shapes"
    value {
      list {
        shape {
          dim {
            size: 28
          }
          dim {
            size: 28
          }
        }
      }
    }
  }
}
node {
  name: "Cast_33"
  op: "Cast"
  input: "Reshape_33"
  device: "/device:CPU:0"
  attr {
    key: "DstT"
    value {
      type: DT_HALF
    }
  }
  attr {
    key: "SrcT"
    value {
      type: DT_UINT8
    }
  }
  attr {
    key: "_output_shapes"
    value {
      list {
        shape {
          dim {
            size: 28
          }
          dim {
            size: 28
          }
        }
      }
    }
  }
}
node {
  name: "Const_34"
  op: "Const"
  device: "/device:CPU:0"
  attr {
    key: "_output_shapes"
    value {
      list {
        shape {
          dim {
            size: 784
          }
        }
      }
    }
  }
  attr {
    key: "dtype"
    value {
      type: DT_UINT8
    }
  }
  attr {
    key: "value"
    value {
      tensor {
        dtype: DT_UINT8
        tensor_shape {
          dim {
            size: 784
          }
        }
        tensor_content: "…"
      }
    }
  }
}
node {
  name: "Reshape_34/shape"
  op: "Const"
  device: "/device:CPU:0"
  attr {
    key: "_output_shapes"
    value {
      list {
        shape {
          dim {
            size: 2
          }
        }
      }
    }
  }
  attr {
    key: "dtype"
    value {
      type: DT_INT32
    }
  }
  attr {
    key: "value"
    value {
      tensor {
        dtype: DT_INT32
        tensor_shape {
          dim {
            size: 2
          }
        }
        tensor_content: "\034\000\000\000\034\000\000\000"
      }
    }
  }
}
node {
  name: "Reshape_34"
  op: "Reshape"
  input: "Const_34"
  input: "Reshape_34/shape"
  device: "/device:CPU:0"
  attr {
    key: "T"
    value {
      type: DT_UINT8
    }
  }
  attr {
    key: "Tshape"
    value {
      type: DT_INT32
    }
  }
  attr {
    key: "_output_shapes"
    value {
      list {
        shape {
          dim {
            size: 28
          }
          dim {
            size: 28
          }
        }
      }
    }
  }
}
node {
  name: "Cast_34"
  op: "Cast"
  input: "Reshape_34"
  device: "/device:CPU:0"
  attr {
    key: "DstT"
    value {
      type: DT_HALF
    }
  }
  attr {
    key: "SrcT"
    value {
      type: DT_UINT8
    }
  }
  attr {
    key: "_output_shapes"
    value {
      list {
        shape {
          dim {
            size: 28
          }
          dim {
            size: 28
          }
        }
      }
    }
  }
}
node {
  name: "Const_35"
  op: "Const"
  device: "/device:CPU:0"
  attr {
    key: "_output_shapes"
    value {
      list {
        shape {
          dim {
            size: 784
          }
        }
      }
    }
  }
  attr {
    key: "dtype"
    value {
      type: DT_UINT8
    }
  }
  attr {
    key: "value"
    value {
      tensor {
        dtype: DT_UINT8
        tensor_shape {
          dim {
            size: 784
          }
        }
        tensor_content: "…"
      }
    }
  }
}
node {
  name: "Reshape_35/shape"
  op: "Const"
  device: "/device:CPU:0"
  attr {
    key: "_output_shapes"
    value {
      list {
        shape {
          dim {
            size: 2
          }
        }
      }
    }
  }
  attr {
    key: "dtype"
    value {
      type: DT_INT32
    }
  }
  attr {
    key: "value"
    value {
      tensor {
        dtype: DT_INT32
        tensor_shape {
          dim {
            size: 2
          }
        }
        tensor_content: "\034\000\000\000\034\000\000\000"
      }
    }
  }
}
node {
  name: "Reshape_35"
  op: "Reshape"
  input: "Const_35"
  input: "Reshape_35/shape"
  device: "/device:CPU:0"
  attr {
    key: "T"
    value {
      type: DT_UINT8
    }
  }
  attr {
    key: "Tshape"
    value {
      type: DT_INT32
    }
  }
  attr {
    key: "_output_shapes"
    value {
      list {
        shape {
          dim {
            size: 28
          }
          dim {
            size: 28
          }
        }
      }
    }
  }
}
node {
  name: "Cast_35"
  op: "Cast"
  input: "Reshape_35"
  device: "/device:CPU:0"
  attr {
    key: "DstT"
    value {
      type: DT_HALF
    }
  }
  attr {
    key: "SrcT"
    value {
      type: DT_UINT8
    }
  }
  attr {
    key: "_output_shapes"
    value {
      list {
        shape {
          dim {
            size: 28
          }
          dim {
            size: 28
          }
        }
      }
    }
  }
}
node {
  name: "Const_36"
  op: "Const"
  device: "/device:CPU:0"
  attr {
    key: "_output_shapes"
    value {
      list {
        shape {
          dim {
            size: 784
          }
        }
      }
    }
  }
  attr {
    key: "dtype"
    value {
      type: DT_UINT8
    }
  }
  attr {
    key: "value"
    value {
      tensor {
        dtype: DT_UINT8
        tensor_shape {
          dim {
            size: 784
          }
        }
        tensor_content: "…"
      }
    }
  }
}
node {
  name: "Reshape_36/shape"
  op: "Const"
  device: "/device:CPU:0"
  attr {
    key: "_output_shapes"
    value {
      list {
        shape {
          dim {
            size: 2
          }
        }
      }
    }
  }
  attr {
    key: "dtype"
    value {
      type: DT_INT32
    }
  }
  attr {
    key: "value"
    value {
      tensor {
        dtype: DT_INT32
        tensor_shape {
          dim {
            size: 2
          }
        }
        tensor_content: "\034\000\000\000\034\000\000\000"
      }
    }
  }
}
node {
  name: "Reshape_36"
  op: "Reshape"
  input: "Const_36"
  input: "Reshape_36/shape"
  device: "/device:CPU:0"
  attr {
    key: "T"
    value {
      type: DT_UINT8
    }
  }
  attr {
    key: "Tshape"
    value {
      type: DT_INT32
    }
  }
  attr {
    key: "_output_shapes"
    value {
      list {
        shape {
          dim {
            size: 28
          }
          dim {
            size: 28
          }
        }
      }
    }
  }
}
node {
  name: "Cast_36"
  op: "Cast"
  input: "Reshape_36"
  device: "/device:CPU:0"
  attr {
    key: "DstT"
    value {
      type: DT_HALF
    }
  }
  attr {
    key: "SrcT"
    value {
      type: DT_UINT8
    }
  }
  attr {
    key: "_output_shapes"
    value {
      list {
        shape {
          dim {
            size: 28
          }
          dim {
            size: 28
          }
        }
      }
    }
  }
}
node {
  name: "Const_37"
  op: "Const"
  device: "/device:CPU:0"
  attr {
    key: "_output_shapes"
    value {
      list {
        shape {
          dim {
            size: 784
          }
        }
      }
    }
  }
  attr {
    key: "dtype"
    value {
      type: DT_UINT8
    }
  }
  attr {
    key: "value"
    value {
      tensor {
        dtype: DT_UINT8
        tensor_shape {
          dim {
            size: 784
          }
        }
        tensor_content: "…"
      }
    }
  }
}
node {
  name: "Reshape_37/shape"
  op: "Const"
  device: "/device:CPU:0"
  attr {
    key: "_output_shapes"
    value {
      list {
        shape {
          dim {
            size: 2
          }
        }
      }
    }
  }
  attr {
    key: "dtype"
    value {
      type: DT_INT32
    }
  }
  attr {
    key: "value"
    value {
      tensor {
        dtype: DT_INT32
        tensor_shape {
          dim {
            size: 2
          }
        }
        tensor_content: "\034\000\000\000\034\000\000\000"
      }
    }
  }
}
node {
  name: "Reshape_37"
  op: "Reshape"
  input: "Const_37"
  input: "Reshape_37/shape"
  device: "/device:CPU:0"
  attr {
    key: "T"
    value {
      type: DT_UINT8
    }
  }
  attr {
    key: "Tshape"
    value {
      type: DT_INT32
    }
  }
  attr {
    key: "_output_shapes"
    value {
      list {
        shape {
          dim {
            size: 28
          }
          dim {
            size: 28
          }
        }
      }
    }
  }
}
node {
  name: "Cast_37"
  op: "Cast"
  input: "Reshape_37"
  device: "/device:CPU:0"
  attr {
    key: "DstT"
    value {
      type: DT_HALF
    }
  }
  attr {
    key: "SrcT"
    value {
      type: DT_UINT8
    }
  }
  attr {
    key: "_output_shapes"
    value {
      list {
        shape {
          dim {
            size: 28
          }
          dim {
            size: 28
          }
        }
      }
    }
  }
}
node {
  name: "Const_38"
  op: "Const"
  device: "/device:CPU:0"
  attr {
    key: "_output_shapes"
    value {
      list {
        shape {
          dim {
            size: 784
          }
        }
      }
    }
  }
  attr {
    key: "dtype"
    value {
      type: DT_UINT8
    }
  }
  attr {
    key: "value"
    value {
      tensor {
        dtype: DT_UINT8
        tensor_shape {
          dim {
            size: 784
          }
        }
        tensor_content: "…"
      }
    }
  }
}
node {
  name: "Reshape_38/shape"
  op: "Const"
  device: "/device:CPU:0"
  attr {
    key: "_output_shapes"
    value {
      list {
        shape {
          dim {
            size: 2
          }
        }
      }
    }
  }
  attr {
    key: "dtype"
    value {
      type: DT_INT32
    }
  }
  attr {
    key: "value"
    value {
      tensor {
        dtype: DT_INT32
        tensor_shape {
          dim {
            size: 2
          }
        }
        tensor_content: "\034\000\000\000\034\000\000\000"
      }
    }
  }
}
node {
  name: "Reshape_38"
  op: "Reshape"
  input: "Const_38"
  input: "Reshape_38/shape"
  device: "/device:CPU:0"
  attr {
    key: "T"
    value {
      type: DT_UINT8
    }
  }
  attr {
    key: "Tshape"
    value {
      type: DT_INT32
    }
  }
  attr {
    key: "_output_shapes"
    value {
      list {
        shape {
          dim {
            size: 28
          }
          dim {
            size: 28
          }
        }
      }
    }
  }
}
node {
  name: "Cast_38"
  op: "Cast"
  input: "Reshape_38"
  device: "/device:CPU:0"
  attr {
    key: "DstT"
    value {
      type: DT_HALF
    }
  }
  attr {
    key: "SrcT"
    value {
      type: DT_UINT8
    }
  }
  attr {
    key: "_output_shapes"
    value {
      list {
        shape {
          dim {
            size: 28
          }
          dim {
            size: 28
          }
        }
      }
    }
  }
}
node {
  name: "Const_39"
  op: "Const"
  device: "/device:CPU:0"
  attr {
    key: "_output_shapes"
    value {
      list {
        shape {
          dim {
            size: 784
          }
        }
      }
    }
  }
  attr {
    key: "dtype"
    value {
      type: DT_UINT8
    }
  }
  attr {
    key: "value"
    value {
      tensor {
        dtype: DT_UINT8
        tensor_shape {
          dim {
            size: 784
          }
        }
        tensor_content: "…"
      }
    }
  }
}
node {
  name: "Reshape_39/shape"
  op: "Const"
  device: "/device:CPU:0"
  attr {
    key: "_output_shapes"
    value {
      list {
        shape {
          dim {
            size: 2
          }
        }
      }
    }
  }
  attr {
    key: "dtype"
    value {
      type: DT_INT32
    }
  }
  attr {
    key: "value"
    value {
      tensor {
        dtype: DT_INT32
        tensor_shape {
          dim {
            size: 2
          }
        }
        tensor_content: "\034\000\000\000\034\000\000\000"
      }
    }
  }
}
node {
  name: "Reshape_39"
  op: "Reshape"
  input: "Const_39"
  input: "Reshape_39/shape"
  device: "/device:CPU:0"
  attr {
    key: "T"
    value {
      type: DT_UINT8
    }
  }
  attr {
    key: "Tshape"
    value {
      type: DT_INT32
    }
  }
  attr {
    key: "_output_shapes"
    value {
      list {
        shape {
          dim {
            size: 28
          }
          dim {
            size: 28
          }
        }
      }
    }
  }
}
node {
  name: "Cast_39"
  op: "Cast"
  input: "Reshape_39"
  device: "/device:CPU:0"
  attr {
    key: "DstT"
    value {
      type: DT_HALF
    }
  }
  attr {
    key: "SrcT"
    value {
      type: DT_UINT8
    }
  }
  attr {
    key: "_output_shapes"
    value {
      list {
        shape {
          dim {
            size: 28
          }
          dim {
            size: 28
          }
        }
      }
    }
  }
}
node {
  name: "Const_40"
  op: "Const"
  device: "/device:CPU:0"
  attr {
    key: "_output_shapes"
    value {
      list {
        shape {
          dim {
            size: 784
          }
        }
      }
    }
  }
  attr {
    key: "dtype"
    value {
      type: DT_UINT8
    }
  }
  attr {
    key: "value"
    value {
      tensor {
        dtype: DT_UINT8
        tensor_shape {
          dim {
            size: 784
          }
        }
        tensor_content: "…"
      }
    }
  }
}
node {
  name: "Reshape_40/shape"
  op: "Const"
  device: "/device:CPU:0"
  attr {
    key: "_output_shapes"
    value {
      list {
        shape {
          dim {
            size: 2
          }
        }
      }
    }
  }
  attr {
    key: "dtype"
    value {
      type: DT_INT32
    }
  }
  attr {
    key: "value"
    value {
      tensor {
        dtype: DT_INT32
        tensor_shape {
          dim {
            size: 2
          }
        }
        tensor_content: "\034\000\000\000\034\000\000\000"
      }
    }
  }
}
node {
  name: "Reshape_40"
  op: "Reshape"
  input: "Const_40"
  input: "Reshape_40/shape"
  device: "/device:CPU:0"
  attr {
    key: "T"
    value {
      type: DT_UINT8
    }
  }
  attr {
    key: "Tshape"
    value {
      type: DT_INT32
    }
  }
  attr {
    key: "_output_shapes"
    value {
      list {
        shape {
          dim {
            size: 28
          }
          dim {
            size: 28
          }
        }
      }
    }
  }
}
node {
  name: "Cast_40"
  op: "Cast"
  input: "Reshape_40"
  device: "/device:CPU:0"
  attr {
    key: "DstT"
    value {
      type: DT_HALF
    }
  }
  attr {
    key: "SrcT"
    value {
      type: DT_UINT8
    }
  }
  attr {
    key: "_output_shapes"
    value {
      list {
        shape {
          dim {
            size: 28
          }
          dim {
            size: 28
          }
        }
      }
    }
  }
}
node {
  name: "Const_41"
  op: "Const"
  device: "/device:CPU:0"
  attr {
    key: "_output_shapes"
    value {
      list {
        shape {
          dim {
            size: 784
          }
        }
      }
    }
  }
  attr {
    key: "dtype"
    value {
      type: DT_UINT8
    }
  }
  attr {
    key: "value"
    value {
      tensor {
        dtype: DT_UINT8
        tensor_shape {
          dim {
            size: 784
          }
        }
        tensor_content: "…"
      }
    }
  }
}
node {
  name: "Reshape_41/shape"
  op: "Const"
  device: "/device:CPU:0"
  attr {
    key: "_output_shapes"
    value {
      list {
        shape {
          dim {
            size: 2
          }
        }
      }
    }
  }
  attr {
    key: "dtype"
    value {
      type: DT_INT32
    }
  }
  attr {
    key: "value"
    value {
      tensor {
        dtype: DT_INT32
        tensor_shape {
          dim {
            size: 2
          }
        }
        tensor_content: "\034\000\000\000\034\000\000\000"
      }
    }
  }
}
node {
  name: "Reshape_41"
  op: "Reshape"
  input: "Const_41"
  input: "Reshape_41/shape"
  device: "/device:CPU:0"
  attr {
    key: "T"
    value {
      type: DT_UINT8
    }
  }
  attr {
    key: "Tshape"
    value {
      type: DT_INT32
    }
  }
  attr {
    key: "_output_shapes"
    value {
      list {
        shape {
          dim {
            size: 28
          }
          dim {
            size: 28
          }
        }
      }
    }
  }
}
node {
  name: "Cast_41"
  op: "Cast"
  input: "Reshape_41"
  device: "/device:CPU:0"
  attr {
    key: "DstT"
    value {
      type: DT_HALF
    }
  }
  attr {
    key: "SrcT"
    value {
      type: DT_UINT8
    }
  }
  attr {
    key: "_output_shapes"
    value {
      list {
        shape {
          dim {
            size: 28
          }
          dim {
            size: 28
          }
        }
      }
    }
  }
}
node {
  name: "Const_42"
  op: "Const"
  device: "/device:CPU:0"
  attr {
    key: "_output_shapes"
    value {
      list {
        shape {
          dim {
            size: 784
          }
        }
      }
    }
  }
  attr {
    key: "dtype"
    value {
      type: DT_UINT8
    }
  }
  attr {
    key: "value"
    value {
      tensor {
        dtype: DT_UINT8
        tensor_shape {
          dim {
            size: 784
          }
        }
        tensor_content: "…"
      }
    }
  }
}
node {
  name: "Reshape_42/shape"
  op: "Const"
  device: "/device:CPU:0"
  attr {
    key: "_output_shapes"
    value {
      list {
        shape {
          dim {
            size: 2
          }
        }
      }
    }
  }
  attr {
    key: "dtype"
    value {
      type: DT_INT32
    }
  }
  attr {
    key: "value"
    value {
      tensor {
        dtype: DT_INT32
        tensor_shape {
          dim {
            size: 2
          }
        }
        tensor_content: "\034\000\000\000\034\000\000\000"
      }
    }
  }
}
node {
  name: "Reshape_42"
  op: "Reshape"
  input: "Const_42"
  input: "Reshape_42/shape"
  device: "/device:CPU:0"
  attr {
    key: "T"
    value {
      type: DT_UINT8
    }
  }
  attr {
    key: "Tshape"
    value {
      type: DT_INT32
    }
  }
  attr {
    key: "_output_shapes"
    value {
      list {
        shape {
          dim {
            size: 28
          }
          dim {
            size: 28
          }
        }
      }
    }
  }
}
node {
  name: "Cast_42"
  op: "Cast"
  input: "Reshape_42"
  device: "/device:CPU:0"
  attr {
    key: "DstT"
    value {
      type: DT_HALF
    }
  }
  attr {
    key: "SrcT"
    value {
      type: DT_UINT8
    }
  }
  attr {
    key: "_output_shapes"
    value {
      list {
        shape {
          dim {
            size: 28
          }
          dim {
            size: 28
          }
        }
      }
    }
  }
}
node {
  name: "Const_43"
  op: "Const"
  device: "/device:CPU:0"
  attr {
    key: "_output_shapes"
    value {
      list {
        shape {
          dim {
            size: 784
          }
        }
      }
    }
  }
  attr {
    key: "dtype"
    value {
      type: DT_UINT8
    }
  }
  attr {
    key: "value"
    value {
      tensor {
        dtype: DT_UINT8
        tensor_shape {
          dim {
            size: 784
          }
        }
        tensor_content: "…"
      }
    }
  }
}
node {
  name: "Reshape_43/shape"
  op: "Const"
  device: "/device:CPU:0"
  attr {
    key: "_output_shapes"
    value {
      list {
        shape {
          dim {
            size: 2
          }
        }
      }
    }
  }
  attr {
    key: "dtype"
    value {
      type: DT_INT32
    }
  }
  attr {
    key: "value"
    value {
      tensor {
        dtype: DT_INT32
        tensor_shape {
          dim {
            size: 2
          }
        }
        tensor_content: "\034\000\000\000\034\000\000\000"
      }
    }
  }
}
node {
  name: "Reshape_43"
  op: "Reshape"
  input: "Const_43"
  input: "Reshape_43/shape"
  device: "/device:CPU:0"
  attr {
    key: "T"
    value {
      type: DT_UINT8
    }
  }
  attr {
    key: "Tshape"
    value {
      type: DT_INT32
    }
  }
  attr {
    key: "_output_shapes"
    value {
      list {
        shape {
          dim {
            size: 28
          }
          dim {
            size: 28
          }
        }
      }
    }
  }
}
node {
  name: "Cast_43"
  op: "Cast"
  input: "Reshape_43"
  device: "/device:CPU:0"
  attr {
    key: "DstT"
    value {
      type: DT_HALF
    }
  }
  attr {
    key: "SrcT"
    value {
      type: DT_UINT8
    }
  }
  attr {
    key: "_output_shapes"
    value {
      list {
        shape {
          dim {
            size: 28
          }
          dim {
            size: 28
          }
        }
      }
    }
  }
}
node {
  name: "Const_44"
  op: "Const"
  device: "/device:CPU:0"
  attr {
    key: "_output_shapes"
    value {
      list {
        shape {
          dim {
            size: 784
          }
        }
      }
    }
  }
  attr {
    key: "dtype"
    value {
      type: DT_UINT8
    }
  }
  attr {
    key: "value"
    value {
      tensor {
        dtype: DT_UINT8
        tensor_shape {
          dim {
            size: 784
          }
        }
        tensor_content: "…"
      }
    }
  }
}
node {
  name: "Reshape_44/shape"
  op: "Const"
  device: "/device:CPU:0"
  attr {
    key: "_output_shapes"
    value {
      list {
        shape {
          dim {
            size: 2
          }
        }
      }
    }
  }
  attr {
    key: "dtype"
    value {
      type: DT_INT32
    }
  }
  attr {
    key: "value"
    value {
      tensor {
        dtype: DT_INT32
        tensor_shape {
          dim {
            size: 2
          }
        }
        tensor_content: "\034\000\000\000\034\000\000\000"
      }
    }
  }
}
node {
  name: "Reshape_44"
  op: "Reshape"
  input: "Const_44"
  input: "Reshape_44/shape"
  device: "/device:CPU:0"
  attr {
    key: "T"
    value {
      type: DT_UINT8
    }
  }
  attr {
    key: "Tshape"
    value {
      type: DT_INT32
    }
  }
  attr {
    key: "_output_shapes"
    value {
      list {
        shape {
          dim {
            size: 28
          }
          dim {
            size: 28
          }
        }
      }
    }
  }
}
node {
  name: "Cast_44"
  op: "Cast"
  input: "Reshape_44"
  device: "/device:CPU:0"
  attr {
    key: "DstT"
    value {
      type: DT_HALF
    }
  }
  attr {
    key: "SrcT"
    value {
      type: DT_UINT8
    }
  }
  attr {
    key: "_output_shapes"
    value {
      list {
        shape {
          dim {
            size: 28
          }
          dim {
            size: 28
          }
        }
      }
    }
  }
}
node {
  name: "Const_45"
  op: "Const"
  device: "/device:CPU:0"
  attr {
    key: "_output_shapes"
    value {
      list {
        shape {
          dim {
            size: 784
          }
        }
      }
    }
  }
  attr {
    key: "dtype"
    value {
      type: DT_UINT8
    }
  }
  attr {
    key: "value"
    value {
      tensor {
        dtype: DT_UINT8
        tensor_shape {
          dim {
            size: 784
          }
        }
        tensor_content: "…"
      }
    }
  }
}
node {
  name: "Reshape_45/shape"
  op: "Const"
  device: "/device:CPU:0"
  attr {
    key: "_output_shapes"
    value {
      list {
        shape {
          dim {
            size: 2
          }
        }
      }
    }
  }
  attr {
    key: "dtype"
    value {
      type: DT_INT32
    }
  }
  attr {
    key: "value"
    value {
      tensor {
        dtype: DT_INT32
        tensor_shape {
          dim {
            size: 2
          }
        }
        tensor_content: "\034\000\000\000\034\000\000\000"
      }
    }
  }
}
node {
  name: "Reshape_45"
  op: "Reshape"
  input: "Const_45"
  input: "Reshape_45/shape"
  device: "/device:CPU:0"
  attr {
    key: "T"
    value {
      type: DT_UINT8
    }
  }
  attr {
    key: "Tshape"
    value {
      type: DT_INT32
    }
  }
  attr {
    key: "_output_shapes"
    value {
      list {
        shape {
          dim {
            size: 28
          }
          dim {
            size: 28
          }
        }
      }
    }
  }
}
node {
  name: "Cast_45"
  op: "Cast"
  input: "Reshape_45"
  device: "/device:CPU:0"
  attr {
    key: "DstT"
    value {
      type: DT_HALF
    }
  }
  attr {
    key: "SrcT"
    value {
      type: DT_UINT8
    }
  }
  attr {
    key: "_output_shapes"
    value {
      list {
        shape {
          dim {
            size: 28
          }
          dim {
            size: 28
          }
        }
      }
    }
  }
}
node {
  name: "Const_46"
  op: "Const"
  device: "/device:CPU:0"
  attr {
    key: "_output_shapes"
    value {
      list {
        shape {
          dim {
            size: 784
          }
        }
      }
    }
  }
  attr {
    key: "dtype"
    value {
      type: DT_UINT8
    }
  }
  attr {
    key: "value"
    value {
      tensor {
        dtype: DT_UINT8
        tensor_shape {
          dim {
            size: 784
          }
        }
        tensor_content: "…"
      }
    }
  }
}
node {
  name: "Reshape_46/shape"
  op: "Const"
  device: "/device:CPU:0"
  attr {
    key: "_output_shapes"
    value {
      list {
        shape {
          dim {
            size: 2
          }
        }
      }
    }
  }
  attr {
    key: "dtype"
    value {
      type: DT_INT32
    }
  }
  attr {
    key: "value"
    value {
      tensor {
        dtype: DT_INT32
        tensor_shape {
          dim {
            size: 2
          }
        }
        tensor_content: "\034\000\000\000\034\000\000\000"
      }
    }
  }
}
node {
  name: "Reshape_46"
  op: "Reshape"
  input: "Const_46"
  input: "Reshape_46/shape"
  device: "/device:CPU:0"
  attr {
    key: "T"
    value {
      type: DT_UINT8
    }
  }
  attr {
    key: "Tshape"
    value {
      type: DT_INT32
    }
  }
  attr {
    key: "_output_shapes"
    value {
      list {
        shape {
          dim {
            size: 28
          }
          dim {
            size: 28
          }
        }
      }
    }
  }
}
node {
  name: "Cast_46"
  op: "Cast"
  input: "Reshape_46"
  device: "/device:CPU:0"
  attr {
    key: "DstT"
    value {
      type: DT_HALF
    }
  }
  attr {
    key: "SrcT"
    value {
      type: DT_UINT8
    }
  }
  attr {
    key: "_output_shapes"
    value {
      list {
        shape {
          dim {
            size: 28
          }
          dim {
            size: 28
          }
        }
      }
    }
  }
}
node {
  name: "Const_47"
  op: "Const"
  device: "/device:CPU:0"
  attr {
    key: "_output_shapes"
    value {
      list {
        shape {
          dim {
            size: 784
          }
        }
      }
    }
  }
  attr {
    key: "dtype"
    value {
      type: DT_UINT8
    }
  }
  attr {
    key: "value"
    value {
      tensor {
        dtype: DT_UINT8
        tensor_shape {
          dim {
            size: 784
          }
        }
        tensor_content: "…"
      }
    }
  }
}
node {
  name: "Reshape_47/shape"
  op: "Const"
  device: "/device:CPU:0"
  attr {
    key: "_output_shapes"
    value {
      list {
        shape {
          dim {
            size: 2
          }
        }
      }
    }
  }
  attr {
    key: "dtype"
    value {
      type: DT_INT32
    }
  }
  attr {
    key: "value"
    value {
      tensor {
        dtype: DT_INT32
        tensor_shape {
          dim {
            size: 2
          }
        }
        tensor_content: "\034\000\000\000\034\000\000\000"
      }
    }
  }
}
node {
  name: "Reshape_47"
  op: "Reshape"
  input: "Const_47"
  input: "Reshape_47/shape"
  device: "/device:CPU:0"
  attr {
    key: "T"
    value {
      type: DT_UINT8
    }
  }
  attr {
    key: "Tshape"
    value {
      type: DT_INT32
    }
  }
  attr {
    key: "_output_shapes"
    value {
      list {
        shape {
          dim {
            size: 28
          }
          dim {
            size: 28
          }
        }
      }
    }
  }
}
node {
  name: "Cast_47"
  op: "Cast"
  input: "Reshape_47"
  device: "/device:CPU:0"
  attr {
    key: "DstT"
    value {
      type: DT_HALF
    }
  }
  attr {
    key: "SrcT"
    value {
      type: DT_UINT8
    }
  }
  attr {
    key: "_output_shapes"
    value {
      list {
        shape {
          dim {
            size: 28
          }
          dim {
            size: 28
          }
        }
      }
    }
  }
}
node {
  name: "Const_48"
  op: "Const"
  device: "/device:CPU:0"
  attr {
    key: "_output_shapes"
    value {
      list {
        shape {
          dim {
            size: 784
          }
        }
      }
    }
  }
  attr {
    key: "dtype"
    value {
      type: DT_UINT8
    }
  }
  attr {
    key: "value"
    value {
      tensor {
        dtype: DT_UINT8
        tensor_shape {
          dim {
            size: 784
          }
        }
        tensor_content: "…"
      }
    }
  }
}
node {
  name: "Reshape_48/shape"
  op: "Const"
  device: "/device:CPU:0"
  attr {
    key: "_output_shapes"
    value {
      list {
        shape {
          dim {
            size: 2
          }
        }
      }
    }
  }
  attr {
    key: "dtype"
    value {
      type: DT_INT32
    }
  }
  attr {
    key: "value"
    value {
      tensor {
        dtype: DT_INT32
        tensor_shape {
          dim {
            size: 2
          }
        }
        tensor_content: "\034\000\000\000\034\000\000\000"
      }
    }
  }
}
node {
  name: "Reshape_48"
  op: "Reshape"
  input: "Const_48"
  input: "Reshape_48/shape"
  device: "/device:CPU:0"
  attr {
    key: "T"
    value {
      type: DT_UINT8
    }
  }
  attr {
    key: "Tshape"
    value {
      type: DT_INT32
    }
  }
  attr {
    key: "_output_shapes"
    value {
      list {
        shape {
          dim {
            size: 28
          }
          dim {
            size: 28
          }
        }
      }
    }
  }
}
node {
  name: "Cast_48"
  op: "Cast"
  input: "Reshape_48"
  device: "/device:CPU:0"
  attr {
    key: "DstT"
    value {
      type: DT_HALF
    }
  }
  attr {
    key: "SrcT"
    value {
      type: DT_UINT8
    }
  }
  attr {
    key: "_output_shapes"
    value {
      list {
        shape {
          dim {
            size: 28
          }
          dim {
            size: 28
          }
        }
      }
    }
  }
}
node {
  name: "Const_49"
  op: "Const"
  device: "/device:CPU:0"
  attr {
    key: "_output_shapes"
    value {
      list {
        shape {
          dim {
            size: 784
          }
        }
      }
    }
  }
  attr {
    key: "dtype"
    value {
      type: DT_UINT8
    }
  }
  attr {
    key: "value"
    value {
      tensor {
        dtype: DT_UINT8
        tensor_shape {
          dim {
            size: 784
          }
        }
        tensor_content: "…"
      }
    }
  }
}
node {
  name: "Reshape_49/shape"
  op: "Const"
  device: "/device:CPU:0"
  attr {
    key: "_output_shapes"
    value {
      list {
        shape {
          dim {
            size: 2
          }
        }
      }
    }
  }
  attr {
    key: "dtype"
    value {
      type: DT_INT32
    }
  }
  attr {
    key: "value"
    value {
      tensor {
        dtype: DT_INT32
        tensor_shape {
          dim {
            size: 2
          }
        }
        tensor_content: "\034\000\000\000\034\000\000\000"
      }
    }
  }
}
node {
  name: "Reshape_49"
  op: "Reshape"
  input: "Const_49"
  input: "Reshape_49/shape"
  device: "/device:CPU:0"
  attr {
    key: "T"
    value {
      type: DT_UINT8
    }
  }
  attr {
    key: "Tshape"
    value {
      type: DT_INT32
    }
  }
  attr {
    key: "_output_shapes"
    value {
      list {
        shape {
          dim {
            size: 28
          }
          dim {
            size: 28
          }
        }
      }
    }
  }
}
node {
  name: "Cast_49"
  op: "Cast"
  input: "Reshape_49"
  device: "/device:CPU:0"
  attr {
    key: "DstT"
    value {
      type: DT_HALF
    }
  }
  attr {
    key: "SrcT"
    value {
      type: DT_UINT8
    }
  }
  attr {
    key: "_output_shapes"
    value {
      list {
        shape {
          dim {
            size: 28
          }
          dim {
            size: 28
          }
        }
      }
    }
  }
}
node {
  name: "Const_50"
  op: "Const"
  device: "/device:CPU:0"
  attr {
    key: "_output_shapes"
    value {
      list {
        shape {
          dim {
            size: 784
          }
        }
      }
    }
  }
  attr {
    key: "dtype"
    value {
      type: DT_UINT8
    }
  }
  attr {
    key: "value"
    value {
      tensor {
        dtype: DT_UINT8
        tensor_shape {
          dim {
            size: 784
          }
        }
        tensor_content: "…"
      }
    }
  }
}
node {
  name: "Reshape_50/shape"
  op: "Const"
  device: "/device:CPU:0"
  attr {
    key: "_output_shapes"
    value {
      list {
        shape {
          dim {
            size: 2
          }
        }
      }
    }
  }
  attr {
    key: "dtype"
    value {
      type: DT_INT32
    }
  }
  attr {
    key: "value"
    value {
      tensor {
        dtype: DT_INT32
        tensor_shape {
          dim {
            size: 2
          }
        }
        tensor_content: "\034\000\000\000\034\000\000\000"
      }
    }
  }
}
node {
  name: "Reshape_50"
  op: "Reshape"
  input: "Const_50"
  input: "Reshape_50/shape"
  device: "/device:CPU:0"
  attr {
    key: "T"
    value {
      type: DT_UINT8
    }
  }
  attr {
    key: "Tshape"
    value {
      type: DT_INT32
    }
  }
  attr {
    key: "_output_shapes"
    value {
      list {
        shape {
          dim {
            size: 28
          }
          dim {
            size: 28
          }
        }
      }
    }
  }
}
node {
  name: "Cast_50"
  op: "Cast"
  input: "Reshape_50"
  device: "/device:CPU:0"
  attr {
    key: "DstT"
    value {
      type: DT_HALF
    }
  }
  attr {
    key: "SrcT"
    value {
      type: DT_UINT8
    }
  }
  attr {
    key: "_output_shapes"
    value {
      list {
        shape {
          dim {
            size: 28
          }
          dim {
            size: 28
          }
        }
      }
    }
  }
}
node {
  name: "Const_51"
  op: "Const"
  device: "/device:CPU:0"
  attr {
    key: "_output_shapes"
    value {
      list {
        shape {
          dim {
            size: 784
          }
        }
      }
    }
  }
  attr {
    key: "dtype"
    value {
      type: DT_UINT8
    }
  }
  attr {
    key: "value"
    value {
      tensor {
        dtype: DT_UINT8
        tensor_shape {
          dim {
            size: 784
          }
        }
        tensor_content: "…"
      }
    }
  }
}
node {
  name: "Reshape_51/shape"
  op: "Const"
  device: "/device:CPU:0"
  attr {
    key: "_output_shapes"
    value {
      list {
        shape {
          dim {
            size: 2
          }
        }
      }
    }
  }
  attr {
    key: "dtype"
    value {
      type: DT_INT32
    }
  }
  attr {
    key: "value"
    value {
      tensor {
        dtype: DT_INT32
        tensor_shape {
          dim {
            size: 2
          }
        }
        tensor_content: "\034\000\000\000\034\000\000\000"
      }
    }
  }
}
node {
  name: "Reshape_51"
  op: "Reshape"
  input: "Const_51"
  input: "Reshape_51/shape"
  device: "/device:CPU:0"
  attr {
    key: "T"
    value {
      type: DT_UINT8
    }
  }
  attr {
    key: "Tshape"
    value {
      type: DT_INT32
    }
  }
  attr {
    key: "_output_shapes"
    value {
      list {
        shape {
          dim {
            size: 28
          }
          dim {
            size: 28
          }
        }
      }
    }
  }
}
node {
  name: "Cast_51"
  op: "Cast"
  input: "Reshape_51"
  device: "/device:CPU:0"
  attr {
    key: "DstT"
    value {
      type: DT_HALF
    }
  }
  attr {
    key: "SrcT"
    value {
      type: DT_UINT8
    }
  }
  attr {
    key: "_output_shapes"
    value {
      list {
        shape {
          dim {
            size: 28
          }
          dim {
            size: 28
          }
        }
      }
    }
  }
}
node {
  name: "Const_52"
  op: "Const"
  device: "/device:CPU:0"
  attr {
    key: "_output_shapes"
    value {
      list {
        shape {
          dim {
            size: 784
          }
        }
      }
    }
  }
  attr {
    key: "dtype"
    value {
      type: DT_UINT8
    }
  }
  attr {
    key: "value"
    value {
      tensor {
        dtype: DT_UINT8
        tensor_shape {
          dim {
            size: 784
          }
        }
        tensor_content: "…"
      }
    }
  }
}
node {
  name: "Reshape_52/shape"
  op: "Const"
  device: "/device:CPU:0"
  attr {
    key: "_output_shapes"
    value {
      list {
        shape {
          dim {
            size: 2
          }
        }
      }
    }
  }
  attr {
    key: "dtype"
    value {
      type: DT_INT32
    }
  }
  attr {
    key: "value"
    value {
      tensor {
        dtype: DT_INT32
        tensor_shape {
          dim {
            size: 2
          }
        }
        tensor_content: "\034\000\000\000\034\000\000\000"
      }
    }
  }
}
node {
  name: "Reshape_52"
  op: "Reshape"
  input: "Const_52"
  input: "Reshape_52/shape"
  device: "/device:CPU:0"
  attr {
    key: "T"
    value {
      type: DT_UINT8
    }
  }
  attr {
    key: "Tshape"
    value {
      type: DT_INT32
    }
  }
  attr {
    key: "_output_shapes"
    value {
      list {
        shape {
          dim {
            size: 28
          }
          dim {
            size: 28
          }
        }
      }
    }
  }
}
node {
  name: "Cast_52"
  op: "Cast"
  input: "Reshape_52"
  device: "/device:CPU:0"
  attr {
    key: "DstT"
    value {
      type: DT_HALF
    }
  }
  attr {
    key: "SrcT"
    value {
      type: DT_UINT8
    }
  }
  attr {
    key: "_output_shapes"
    value {
      list {
        shape {
          dim {
            size: 28
          }
          dim {
            size: 28
          }
        }
      }
    }
  }
}
node {
  name: "Const_53"
  op: "Const"
  device: "/device:CPU:0"
  attr {
    key: "_output_shapes"
    value {
      list {
        shape {
          dim {
            size: 784
          }
        }
      }
    }
  }
  attr {
    key: "dtype"
    value {
      type: DT_UINT8
    }
  }
  attr {
    key: "value"
    value {
      tensor {
        dtype: DT_UINT8
        tensor_shape {
          dim {
            size: 784
          }
        }
        tensor_content: "…"
      }
    }
  }
}
node {
  name: "Reshape_53/shape"
  op: "Const"
  device: "/device:CPU:0"
  attr {
    key: "_output_shapes"
    value {
      list {
        shape {
          dim {
            size: 2
          }
        }
      }
    }
  }
  attr {
    key: "dtype"
    value {
      type: DT_INT32
    }
  }
  attr {
    key: "value"
    value {
      tensor {
        dtype: DT_INT32
        tensor_shape {
          dim {
            size: 2
          }
        }
        tensor_content: "\034\000\000\000\034\000\000\000"
      }
    }
  }
}
node {
  name: "Reshape_53"
  op: "Reshape"
  input: "Const_53"
  input: "Reshape_53/shape"
  device: "/device:CPU:0"
  attr {
    key: "T"
    value {
      type: DT_UINT8
    }
  }
  attr {
    key: "Tshape"
    value {
      type: DT_INT32
    }
  }
  attr {
    key: "_output_shapes"
    value {
      list {
        shape {
          dim {
            size: 28
          }
          dim {
            size: 28
          }
        }
      }
    }
  }
}
node {
  name: "Cast_53"
  op: "Cast"
  input: "Reshape_53"
  device: "/device:CPU:0"
  attr {
    key: "DstT"
    value {
      type: DT_HALF
    }
  }
  attr {
    key: "SrcT"
    value {
      type: DT_UINT8
    }
  }
  attr {
    key: "_output_shapes"
    value {
      list {
        shape {
          dim {
            size: 28
          }
          dim {
            size: 28
          }
        }
      }
    }
  }
}
node {
  name: "Const_54"
  op: "Const"
  device: "/device:CPU:0"
  attr {
    key: "_output_shapes"
    value {
      list {
        shape {
          dim {
            size: 784
          }
        }
      }
    }
  }
  attr {
    key: "dtype"
    value {
      type: DT_UINT8
    }
  }
  attr {
    key: "value"
    value {
      tensor {
        dtype: DT_UINT8
        tensor_shape {
          dim {
            size: 784
          }
        }
        tensor_content: "…"
      }
    }
  }
}
node {
  name: "Reshape_54/shape"
  op: "Const"
  device: "/device:CPU:0"
  attr {
    key: "_output_shapes"
    value {
      list {
        shape {
          dim {
            size: 2
          }
        }
      }
    }
  }
  attr {
    key: "dtype"
    value {
      type: DT_INT32
    }
  }
  attr {
    key: "value"
    value {
      tensor {
        dtype: DT_INT32
        tensor_shape {
          dim {
            size: 2
          }
        }
        tensor_content: "\034\000\000\000\034\000\000\000"
      }
    }
  }
}
node {
  name: "Reshape_54"
  op: "Reshape"
  input: "Const_54"
  input: "Reshape_54/shape"
  device: "/device:CPU:0"
  attr {
    key: "T"
    value {
      type: DT_UINT8
    }
  }
  attr {
    key: "Tshape"
    value {
      type: DT_INT32
    }
  }
  attr {
    key: "_output_shapes"
    value {
      list {
        shape {
          dim {
            size: 28
          }
          dim {
            size: 28
          }
        }
      }
    }
  }
}
node {
  name: "Cast_54"
  op: "Cast"
  input: "Reshape_54"
  device: "/device:CPU:0"
  attr {
    key: "DstT"
    value {
      type: DT_HALF
    }
  }
  attr {
    key: "SrcT"
    value {
      type: DT_UINT8
    }
  }
  attr {
    key: "_output_shapes"
    value {
      list {
        shape {
          dim {
            size: 28
          }
          dim {
            size: 28
          }
        }
      }
    }
  }
}
node {
  name: "Const_55"
  op: "Const"
  device: "/device:CPU:0"
  attr {
    key: "_output_shapes"
    value {
      list {
        shape {
          dim {
            size: 784
          }
        }
      }
    }
  }
  attr {
    key: "dtype"
    value {
      type: DT_UINT8
    }
  }
  attr {
    key: "value"
    value {
      tensor {
        dtype: DT_UINT8
        tensor_shape {
          dim {
            size: 784
          }
        }
        tensor_content: "…"
      }
    }
  }
}
node {
  name: "Reshape_55/shape"
  op: "Const"
  device: "/device:CPU:0"
  attr {
    key: "_output_shapes"
    value {
      list {
        shape {
          dim {
            size: 2
          }
        }
      }
    }
  }
  attr {
    key: "dtype"
    value {
      type: DT_INT32
    }
  }
  attr {
    key: "value"
    value {
      tensor {
        dtype: DT_INT32
        tensor_shape {
          dim {
            size: 2
          }
        }
        tensor_content: "\034\000\000\000\034\000\000\000"
      }
    }
  }
}
node {
  name: "Reshape_55"
  op: "Reshape"
  input: "Const_55"
  input: "Reshape_55/shape"
  device: "/device:CPU:0"
  attr {
    key: "T"
    value {
      type: DT_UINT8
    }
  }
  attr {
    key: "Tshape"
    value {
      type: DT_INT32
    }
  }
  attr {
    key: "_output_shapes"
    value {
      list {
        shape {
          dim {
            size: 28
          }
          dim {
            size: 28
          }
        }
      }
    }
  }
}
node {
  name: "Cast_55"
  op: "Cast"
  input: "Reshape_55"
  device: "/device:CPU:0"
  attr {
    key: "DstT"
    value {
      type: DT_HALF
    }
  }
  attr {
    key: "SrcT"
    value {
      type: DT_UINT8
    }
  }
  attr {
    key: "_output_shapes"
    value {
      list {
        shape {
          dim {
            size: 28
          }
          dim {
            size: 28
          }
        }
      }
    }
  }
}
node {
  name: "Const_56"
  op: "Const"
  device: "/device:CPU:0"
  attr {
    key: "_output_shapes"
    value {
      list {
        shape {
          dim {
            size: 784
          }
        }
      }
    }
  }
  attr {
    key: "dtype"
    value {
      type: DT_UINT8
    }
  }
  attr {
    key: "value"
    value {
      tensor {
        dtype: DT_UINT8
        tensor_shape {
          dim {
            size: 784
          }
        }
        tensor_content: "…"
      }
    }
  }
}
node {
  name: "Reshape_56/shape"
  op: "Const"
  device: "/device:CPU:0"
  attr {
    key: "_output_shapes"
    value {
      list {
        shape {
          dim {
            size: 2
          }
        }
      }
    }
  }
  attr {
    key: "dtype"
    value {
      type: DT_INT32
    }
  }
  attr {
    key: "value"
    value {
      tensor {
        dtype: DT_INT32
        tensor_shape {
          dim {
            size: 2
          }
        }
        tensor_content: "\034\000\000\000\034\000\000\000"
      }
    }
  }
}
node {
  name: "Reshape_56"
  op: "Reshape"
  input: "Const_56"
  input: "Reshape_56/shape"
  device: "/device:CPU:0"
  attr {
    key: "T"
    value {
      type: DT_UINT8
    }
  }
  attr {
    key: "Tshape"
    value {
      type: DT_INT32
    }
  }
  attr {
    key: "_output_shapes"
    value {
      list {
        shape {
          dim {
            size: 28
          }
          dim {
            size: 28
          }
        }
      }
    }
  }
}
node {
  name: "Cast_56"
  op: "Cast"
  input: "Reshape_56"
  device: "/device:CPU:0"
  attr {
    key: "DstT"
    value {
      type: DT_HALF
    }
  }
  attr {
    key: "SrcT"
    value {
      type: DT_UINT8
    }
  }
  attr {
    key: "_output_shapes"
    value {
      list {
        shape {
          dim {
            size: 28
          }
          dim {
            size: 28
          }
        }
      }
    }
  }
}
node {
  name: "Const_57"
  op: "Const"
  device: "/device:CPU:0"
  attr {
    key: "_output_shapes"
    value {
      list {
        shape {
          dim {
            size: 784
          }
        }
      }
    }
  }
  attr {
    key: "dtype"
    value {
      type: DT_UINT8
    }
  }
  attr {
    key: "value"
    value {
      tensor {
        dtype: DT_UINT8
        tensor_shape {
          dim {
            size: 784
          }
        }
        tensor_content: "…"
      }
    }
  }
}
node {
  name: "Reshape_57/shape"
  op: "Const"
  device: "/device:CPU:0"
  attr {
    key: "_output_shapes"
    value {
      list {
        shape {
          dim {
            size: 2
          }
        }
      }
    }
  }
  attr {
    key: "dtype"
    value {
      type: DT_INT32
    }
  }
  attr {
    key: "value"
    value {
      tensor {
        dtype: DT_INT32
        tensor_shape {
          dim {
            size: 2
          }
        }
        tensor_content: "\034\000\000\000\034\000\000\000"
      }
    }
  }
}
node {
  name: "Reshape_57"
  op: "Reshape"
  input: "Const_57"
  input: "Reshape_57/shape"
  device: "/device:CPU:0"
  attr {
    key: "T"
    value {
      type: DT_UINT8
    }
  }
  attr {
    key: "Tshape"
    value {
      type: DT_INT32
    }
  }
  attr {
    key: "_output_shapes"
    value {
      list {
        shape {
          dim {
            size: 28
          }
          dim {
            size: 28
          }
        }
      }
    }
  }
}
node {
  name: "Cast_57"
  op: "Cast"
  input: "Reshape_57"
  device: "/device:CPU:0"
  attr {
    key: "DstT"
    value {
      type: DT_HALF
    }
  }
  attr {
    key: "SrcT"
    value {
      type: DT_UINT8
    }
  }
  attr {
    key: "_output_shapes"
    value {
      list {
        shape {
          dim {
            size: 28
          }
          dim {
            size: 28
          }
        }
      }
    }
  }
}
node {
  name: "Const_58"
  op: "Const"
  device: "/device:CPU:0"
  attr {
    key: "_output_shapes"
    value {
      list {
        shape {
          dim {
            size: 784
          }
        }
      }
    }
  }
  attr {
    key: "dtype"
    value {
      type: DT_UINT8
    }
  }
  attr {
    key: "value"
    value {
      tensor {
        dtype: DT_UINT8
        tensor_shape {
          dim {
            size: 784
          }
        }
        tensor_content: "…"
      }
    }
  }
}
node {
  name: "Reshape_58/shape"
  op: "Const"
  device: "/device:CPU:0"
  attr {
    key: "_output_shapes"
    value {
      list {
        shape {
          dim {
            size: 2
          }
        }
      }
    }
  }
  attr {
    key: "dtype"
    value {
      type: DT_INT32
    }
  }
  attr {
    key: "value"
    value {
      tensor {
        dtype: DT_INT32
        tensor_shape {
          dim {
            size: 2
          }
        }
        tensor_content: "\034\000\000\000\034\000\000\000"
      }
    }
  }
}
node {
  name: "Reshape_58"
  op: "Reshape"
  input: "Const_58"
  input: "Reshape_58/shape"
  device: "/device:CPU:0"
  attr {
    key: "T"
    value {
      type: DT_UINT8
    }
  }
  attr {
    key: "Tshape"
    value {
      type: DT_INT32
    }
  }
  attr {
    key: "_output_shapes"
    value {
      list {
        shape {
          dim {
            size: 28
          }
          dim {
            size: 28
          }
        }
      }
    }
  }
}
node {
  name: "Cast_58"
  op: "Cast"
  input: "Reshape_58"
  device: "/device:CPU:0"
  attr {
    key: "DstT"
    value {
      type: DT_HALF
    }
  }
  attr {
    key: "SrcT"
    value {
      type: DT_UINT8
    }
  }
  attr {
    key: "_output_shapes"
    value {
      list {
        shape {
          dim {
            size: 28
          }
          dim {
            size: 28
          }
        }
      }
    }
  }
}
node {
  name: "Const_59"
  op: "Const"
  device: "/device:CPU:0"
  attr {
    key: "_output_shapes"
    value {
      list {
        shape {
          dim {
            size: 784
          }
        }
      }
    }
  }
  attr {
    key: "dtype"
    value {
      type: DT_UINT8
    }
  }
  attr {
    key: "value"
    value {
      tensor {
        dtype: DT_UINT8
        tensor_shape {
          dim {
            size: 784
          }
        }
        tensor_content: "…"
      }
    }
  }
}
node {
  name: "Reshape_59/shape"
  op: "Const"
  device: "/device:CPU:0"
  attr {
    key: "_output_shapes"
    value {
      list {
        shape {
          dim {
            size: 2
          }
        }
      }
    }
  }
  attr {
    key: "dtype"
    value {
      type: DT_INT32
    }
  }
  attr {
    key: "value"
    value {
      tensor {
        dtype: DT_INT32
        tensor_shape {
          dim {
            size: 2
          }
        }
        tensor_content: "\034\000\000\000\034\000\000\000"
      }
    }
  }
}
node {
  name: "Reshape_59"
  op: "Reshape"
  input: "Const_59"
  input: "Reshape_59/shape"
  device: "/device:CPU:0"
  attr {
    key: "T"
    value {
      type: DT_UINT8
    }
  }
  attr {
    key: "Tshape"
    value {
      type: DT_INT32
    }
  }
  attr {
    key: "_output_shapes"
    value {
      list {
        shape {
          dim {
            size: 28
          }
          dim {
            size: 28
          }
        }
      }
    }
  }
}
node {
  name: "Cast_59"
  op: "Cast"
  input: "Reshape_59"
  device: "/device:CPU:0"
  attr {
    key: "DstT"
    value {
      type: DT_HALF
    }
  }
  attr {
    key: "SrcT"
    value {
      type: DT_UINT8
    }
  }
  attr {
    key: "_output_shapes"
    value {
      list {
        shape {
          dim {
            size: 28
          }
          dim {
            size: 28
          }
        }
      }
    }
  }
}
node {
  name: "Const_60"
  op: "Const"
  device: "/device:CPU:0"
  attr {
    key: "_output_shapes"
    value {
      list {
        shape {
          dim {
            size: 784
          }
        }
      }
    }
  }
  attr {
    key: "dtype"
    value {
      type: DT_UINT8
    }
  }
  attr {
    key: "value"
    value {
      tensor {
        dtype: DT_UINT8
        tensor_shape {
          dim {
            size: 784
          }
        }
        tensor_content: "…"
      }
    }
  }
}
node {
  name: "Reshape_60/shape"
  op: "Const"
  device: "/device:CPU:0"
  attr {
    key: "_output_shapes"
    value {
      list {
        shape {
          dim {
            size: 2
          }
        }
      }
    }
  }
  attr {
    key: "dtype"
    value {
      type: DT_INT32
    }
  }
  attr {
    key: "value"
    value {
      tensor {
        dtype: DT_INT32
        tensor_shape {
          dim {
            size: 2
          }
        }
        tensor_content: "\034\000\000\000\034\000\000\000"
      }
    }
  }
}
node {
  name: "Reshape_60"
  op: "Reshape"
  input: "Const_60"
  input: "Reshape_60/shape"
  device: "/device:CPU:0"
  attr {
    key: "T"
    value {
      type: DT_UINT8
    }
  }
  attr {
    key: "Tshape"
    value {
      type: DT_INT32
    }
  }
  attr {
    key: "_output_shapes"
    value {
      list {
        shape {
          dim {
            size: 28
          }
          dim {
            size: 28
          }
        }
      }
    }
  }
}
node {
  name: "Cast_60"
  op: "Cast"
  input: "Reshape_60"
  device: "/device:CPU:0"
  attr {
    key: "DstT"
    value {
      type: DT_HALF
    }
  }
  attr {
    key: "SrcT"
    value {
      type: DT_UINT8
    }
  }
  attr {
    key: "_output_shapes"
    value {
      list {
        shape {
          dim {
            size: 28
          }
          dim {
            size: 28
          }
        }
      }
    }
  }
}
node {
  name: "Const_61"
  op: "Const"
  device: "/device:CPU:0"
  attr {
    key: "_output_shapes"
    value {
      list {
        shape {
          dim {
            size: 784
          }
        }
      }
    }
  }
  attr {
    key: "dtype"
    value {
      type: DT_UINT8
    }
  }
  attr {
    key: "value"
    value {
      tensor {
        dtype: DT_UINT8
        tensor_shape {
          dim {
            size: 784
          }
        }
        tensor_content: "…"
      }
    }
  }
}
node {
  name: "Reshape_61/shape"
  op: "Const"
  device: "/device:CPU:0"
  attr {
    key: "_output_shapes"
    value {
      list {
        shape {
          dim {
            size: 2
          }
        }
      }
    }
  }
  attr {
    key: "dtype"
    value {
      type: DT_INT32
    }
  }
  attr {
    key: "value"
    value {
      tensor {
        dtype: DT_INT32
        tensor_shape {
          dim {
            size: 2
          }
        }
        tensor_content: "\034\000\000\000\034\000\000\000"
      }
    }
  }
}
node {
  name: "Reshape_61"
  op: "Reshape"
  input: "Const_61"
  input: "Reshape_61/shape"
  device: "/device:CPU:0"
  attr {
    key: "T"
    value {
      type: DT_UINT8
    }
  }
  attr {
    key: "Tshape"
    value {
      type: DT_INT32
    }
  }
  attr {
    key: "_output_shapes"
    value {
      list {
        shape {
          dim {
            size: 28
          }
          dim {
            size: 28
          }
        }
      }
    }
  }
}
node {
  name: "Cast_61"
  op: "Cast"
  input: "Reshape_61"
  device: "/device:CPU:0"
  attr {
    key: "DstT"
    value {
      type: DT_HALF
    }
  }
  attr {
    key: "SrcT"
    value {
      type: DT_UINT8
    }
  }
  attr {
    key: "_output_shapes"
    value {
      list {
        shape {
          dim {
            size: 28
          }
          dim {
            size: 28
          }
        }
      }
    }
  }
}
node {
  name: "Const_62"
  op: "Const"
  device: "/device:CPU:0"
  attr {
    key: "_output_shapes"
    value {
      list {
        shape {
          dim {
            size: 784
          }
        }
      }
    }
  }
  attr {
    key: "dtype"
    value {
      type: DT_UINT8
    }
  }
  attr {
    key: "value"
    value {
      tensor {
        dtype: DT_UINT8
        tensor_shape {
          dim {
            size: 784
          }
        }
        tensor_content: "…"
      }
    }
  }
}
node {
  name: "Reshape_62/shape"
  op: "Const"
  device: "/device:CPU:0"
  attr {
    key: "_output_shapes"
    value {
      list {
        shape {
          dim {
            size: 2
          }
        }
      }
    }
  }
  attr {
    key: "dtype"
    value {
      type: DT_INT32
    }
  }
  attr {
    key: "value"
    value {
      tensor {
        dtype: DT_INT32
        tensor_shape {
          dim {
            size: 2
          }
        }
        tensor_content: "\034\000\000\000\034\000\000\000"
      }
    }
  }
}
node {
  name: "Reshape_62"
  op: "Reshape"
  input: "Const_62"
  input: "Reshape_62/shape"
  device: "/device:CPU:0"
  attr {
    key: "T"
    value {
      type: DT_UINT8
    }
  }
  attr {
    key: "Tshape"
    value {
      type: DT_INT32
    }
  }
  attr {
    key: "_output_shapes"
    value {
      list {
        shape {
          dim {
            size: 28
          }
          dim {
            size: 28
          }
        }
      }
    }
  }
}
node {
  name: "Cast_62"
  op: "Cast"
  input: "Reshape_62"
  device: "/device:CPU:0"
  attr {
    key: "DstT"
    value {
      type: DT_HALF
    }
  }
  attr {
    key: "SrcT"
    value {
      type: DT_UINT8
    }
  }
  attr {
    key: "_output_shapes"
    value {
      list {
        shape {
          dim {
            size: 28
          }
          dim {
            size: 28
          }
        }
      }
    }
  }
}
node {
  name: "Const_63"
  op: "Const"
  device: "/device:CPU:0"
  attr {
    key: "_output_shapes"
    value {
      list {
        shape {
          dim {
            size: 784
          }
        }
      }
    }
  }
  attr {
    key: "dtype"
    value {
      type: DT_UINT8
    }
  }
  attr {
    key: "value"
    value {
      tensor {
        dtype: DT_UINT8
        tensor_shape {
          dim {
            size: 784
          }
        }
        tensor_content: "…"
      }
    }
  }
}
node {
  name: "Reshape_63/shape"
  op: "Const"
  device: "/device:CPU:0"
  attr {
    key: "_output_shapes"
    value {
      list {
        shape {
          dim {
            size: 2
          }
        }
      }
    }
  }
  attr {
    key: "dtype"
    value {
      type: DT_INT32
    }
  }
  attr {
    key: "value"
    value {
      tensor {
        dtype: DT_INT32
        tensor_shape {
          dim {
            size: 2
          }
        }
        tensor_content: "\034\000\000\000\034\000\000\000"
      }
    }
  }
}
node {
  name: "Reshape_63"
  op: "Reshape"
  input: "Const_63"
  input: "Reshape_63/shape"
  device: "/device:CPU:0"
  attr {
    key: "T"
    value {
      type: DT_UINT8
    }
  }
  attr {
    key: "Tshape"
    value {
      type: DT_INT32
    }
  }
  attr {
    key: "_output_shapes"
    value {
      list {
        shape {
          dim {
            size: 28
          }
          dim {
            size: 28
          }
        }
      }
    }
  }
}
node {
  name: "Cast_63"
  op: "Cast"
  input: "Reshape_63"
  device: "/device:CPU:0"
  attr {
    key: "DstT"
    value {
      type: DT_HALF
    }
  }
  attr {
    key: "SrcT"
    value {
      type: DT_UINT8
    }
  }
  attr {
    key: "_output_shapes"
    value {
      list {
        shape {
          dim {
            size: 28
          }
          dim {
            size: 28
          }
        }
      }
    }
  }
}
node {
  name: "Const_64"
  op: "Const"
  device: "/device:CPU:0"
  attr {
    key: "_output_shapes"
    value {
      list {
        shape {
          dim {
            size: 784
          }
        }
      }
    }
  }
  attr {
    key: "dtype"
    value {
      type: DT_UINT8
    }
  }
  attr {
    key: "value"
    value {
      tensor {
        dtype: DT_UINT8
        tensor_shape {
          dim {
            size: 784
          }
        }
        tensor_content: "…"
      }
    }
  }
}
node {
  name: "Reshape_64/shape"
  op: "Const"
  device: "/device:CPU:0"
  attr {
    key: "_output_shapes"
    value {
      list {
        shape {
          dim {
            size: 2
          }
        }
      }
    }
  }
  attr {
    key: "dtype"
    value {
      type: DT_INT32
    }
  }
  attr {
    key: "value"
    value {
      tensor {
        dtype: DT_INT32
        tensor_shape {
          dim {
            size: 2
          }
        }
        tensor_content: "\034\000\000\000\034\000\000\000"
      }
    }
  }
}
node {
  name: "Reshape_64"
  op: "Reshape"
  input: "Const_64"
  input: "Reshape_64/shape"
  device: "/device:CPU:0"
  attr {
    key: "T"
    value {
      type: DT_UINT8
    }
  }
  attr {
    key: "Tshape"
    value {
      type: DT_INT32
    }
  }
  attr {
    key: "_output_shapes"
    value {
      list {
        shape {
          dim {
            size: 28
          }
          dim {
            size: 28
          }
        }
      }
    }
  }
}
node {
  name: "Cast_64"
  op: "Cast"
  input: "Reshape_64"
  device: "/device:CPU:0"
  attr {
    key: "DstT"
    value {
      type: DT_HALF
    }
  }
  attr {
    key: "SrcT"
    value {
      type: DT_UINT8
    }
  }
  attr {
    key: "_output_shapes"
    value {
      list {
        shape {
          dim {
            size: 28
          }
          dim {
            size: 28
          }
        }
      }
    }
  }
}
node {
  name: "Const_65"
  op: "Const"
  device: "/device:CPU:0"
  attr {
    key: "_output_shapes"
    value {
      list {
        shape {
          dim {
            size: 784
          }
        }
      }
    }
  }
  attr {
    key: "dtype"
    value {
      type: DT_UINT8
    }
  }
  attr {
    key: "value"
    value {
      tensor {
        dtype: DT_UINT8
        tensor_shape {
          dim {
            size: 784
          }
        }
        tensor_content: "…"
      }
    }
  }
}
node {
  name: "Reshape_65/shape"
  op: "Const"
  device: "/device:CPU:0"
  attr {
    key: "_output_shapes"
    value {
      list {
        shape {
          dim {
            size: 2
          }
        }
      }
    }
  }
  attr {
    key: "dtype"
    value {
      type: DT_INT32
    }
  }
  attr {
    key: "value"
    value {
      tensor {
        dtype: DT_INT32
        tensor_shape {
          dim {
            size: 2
          }
        }
        tensor_content: "\034\000\000\000\034\000\000\000"
      }
    }
  }
}
node {
  name: "Reshape_65"
  op: "Reshape"
  input: "Const_65"
  input: "Reshape_65/shape"
  device: "/device:CPU:0"
  attr {
    key: "T"
    value {
      type: DT_UINT8
    }
  }
  attr {
    key: "Tshape"
    value {
      type: DT_INT32
    }
  }
  attr {
    key: "_output_shapes"
    value {
      list {
        shape {
          dim {
            size: 28
          }
          dim {
            size: 28
          }
        }
      }
    }
  }
}
node {
  name: "Cast_65"
  op: "Cast"
  input: "Reshape_65"
  device: "/device:CPU:0"
  attr {
    key: "DstT"
    value {
      type: DT_HALF
    }
  }
  attr {
    key: "SrcT"
    value {
      type: DT_UINT8
    }
  }
  attr {
    key: "_output_shapes"
    value {
      list {
        shape {
          dim {
            size: 28
          }
          dim {
            size: 28
          }
        }
      }
    }
  }
}
node {
  name: "Const_66"
  op: "Const"
  device: "/device:CPU:0"
  attr {
    key: "_output_shapes"
    value {
      list {
        shape {
          dim {
            size: 784
          }
        }
      }
    }
  }
  attr {
    key: "dtype"
    value {
      type: DT_UINT8
    }
  }
  attr {
    key: "value"
    value {
      tensor {
        dtype: DT_UINT8
        tensor_shape {
          dim {
            size: 784
          }
        }
        tensor_content: "…"
      }
    }
  }
}
node {
  name: "Reshape_66/shape"
  op: "Const"
  device: "/device:CPU:0"
  attr {
    key: "_output_shapes"
    value {
      list {
        shape {
          dim {
            size: 2
          }
        }
      }
    }
  }
  attr {
    key: "dtype"
    value {
      type: DT_INT32
    }
  }
  attr {
    key: "value"
    value {
      tensor {
        dtype: DT_INT32
        tensor_shape {
          dim {
            size: 2
          }
        }
        tensor_content: "\034\000\000\000\034\000\000\000"
      }
    }
  }
}
node {
  name: "Reshape_66"
  op: "Reshape"
  input: "Const_66"
  input: "Reshape_66/shape"
  device: "/device:CPU:0"
  attr {
    key: "T"
    value {
      type: DT_UINT8
    }
  }
  attr {
    key: "Tshape"
    value {
      type: DT_INT32
    }
  }
  attr {
    key: "_output_shapes"
    value {
      list {
        shape {
          dim {
            size: 28
          }
          dim {
            size: 28
          }
        }
      }
    }
  }
}
node {
  name: "Cast_66"
  op: "Cast"
  input: "Reshape_66"
  device: "/device:CPU:0"
  attr {
    key: "DstT"
    value {
      type: DT_HALF
    }
  }
  attr {
    key: "SrcT"
    value {
      type: DT_UINT8
    }
  }
  attr {
    key: "_output_shapes"
    value {
      list {
        shape {
          dim {
            size: 28
          }
          dim {
            size: 28
          }
        }
      }
    }
  }
}
node {
  name: "Const_67"
  op: "Const"
  device: "/device:CPU:0"
  attr {
    key: "_output_shapes"
    value {
      list {
        shape {
          dim {
            size: 784
          }
        }
      }
    }
  }
  attr {
    key: "dtype"
    value {
      type: DT_UINT8
    }
  }
  attr {
    key: "value"
    value {
      tensor {
        dtype: DT_UINT8
        tensor_shape {
          dim {
            size: 784
          }
        }
        tensor_content: "…"
      }
    }
  }
}
node {
  name: "Reshape_67/shape"
  op: "Const"
  device: "/device:CPU:0"
  attr {
    key: "_output_shapes"
    value {
      list {
        shape {
          dim {
            size: 2
          }
        }
      }
    }
  }
  attr {
    key: "dtype"
    value {
      type: DT_INT32
    }
  }
  attr {
    key: "value"
    value {
      tensor {
        dtype: DT_INT32
        tensor_shape {
          dim {
            size: 2
          }
        }
        tensor_content: "\034\000\000\000\034\000\000\000"
      }
    }
  }
}
node {
  name: "Reshape_67"
  op: "Reshape"
  input: "Const_67"
  input: "Reshape_67/shape"
  device: "/device:CPU:0"
  attr {
    key: "T"
    value {
      type: DT_UINT8
    }
  }
  attr {
    key: "Tshape"
    value {
      type: DT_INT32
    }
  }
  attr {
    key: "_output_shapes"
    value {
      list {
        shape {
          dim {
            size: 28
          }
          dim {
            size: 28
          }
        }
      }
    }
  }
}
node {
  name: "Cast_67"
  op: "Cast"
  input: "Reshape_67"
  device: "/device:CPU:0"
  attr {
    key: "DstT"
    value {
      type: DT_HALF
    }
  }
  attr {
    key: "SrcT"
    value {
      type: DT_UINT8
    }
  }
  attr {
    key: "_output_shapes"
    value {
      list {
        shape {
          dim {
            size: 28
          }
          dim {
            size: 28
          }
        }
      }
    }
  }
}
node {
  name: "Const_68"
  op: "Const"
  device: "/device:CPU:0"
  attr {
    key: "_output_shapes"
    value {
      list {
        shape {
          dim {
            size: 784
          }
        }
      }
    }
  }
  attr {
    key: "dtype"
    value {
      type: DT_UINT8
    }
  }
  attr {
    key: "value"
    value {
      tensor {
        dtype: DT_UINT8
        tensor_shape {
          dim {
            size: 784
          }
        }
        tensor_content: "…"
      }
    }
  }
}
node {
  name: "Reshape_68/shape"
  op: "Const"
  device: "/device:CPU:0"
  attr {
    key: "_output_shapes"
    value {
      list {
        shape {
          dim {
            size: 2
          }
        }
      }
    }
  }
  attr {
    key: "dtype"
    value {
      type: DT_INT32
    }
  }
  attr {
    key: "value"
    value {
      tensor {
        dtype: DT_INT32
        tensor_shape {
          dim {
            size: 2
          }
        }
        tensor_content: "\034\000\000\000\034\000\000\000"
      }
    }
  }
}
node {
  name: "Reshape_68"
  op: "Reshape"
  input: "Const_68"
  input: "Reshape_68/shape"
  device: "/device:CPU:0"
  attr {
    key: "T"
    value {
      type: DT_UINT8
    }
  }
  attr {
    key: "Tshape"
    value {
      type: DT_INT32
    }
  }
  attr {
    key: "_output_shapes"
    value {
      list {
        shape {
          dim {
            size: 28
          }
          dim {
            size: 28
          }
        }
      }
    }
  }
}
node {
  name: "Cast_68"
  op: "Cast"
  input: "Reshape_68"
  device: "/device:CPU:0"
  attr {
    key: "DstT"
    value {
      type: DT_HALF
    }
  }
  attr {
    key: "SrcT"
    value {
      type: DT_UINT8
    }
  }
  attr {
    key: "_output_shapes"
    value {
      list {
        shape {
          dim {
            size: 28
          }
          dim {
            size: 28
          }
        }
      }
    }
  }
}
node {
  name: "Const_69"
  op: "Const"
  device: "/device:CPU:0"
  attr {
    key: "_output_shapes"
    value {
      list {
        shape {
          dim {
            size: 784
          }
        }
      }
    }
  }
  attr {
    key: "dtype"
    value {
      type: DT_UINT8
    }
  }
  attr {
    key: "value"
    value {
      tensor {
        dtype: DT_UINT8
        tensor_shape {
          dim {
            size: 784
          }
        }
        tensor_content: "…"
      }
    }
  }
}
node {
  name: "Reshape_69/shape"
  op: "Const"
  device: "/device:CPU:0"
  attr {
    key: "_output_shapes"
    value {
      list {
        shape {
          dim {
            size: 2
          }
        }
      }
    }
  }
  attr {
    key: "dtype"
    value {
      type: DT_INT32
    }
  }
  attr {
    key: "value"
    value {
      tensor {
        dtype: DT_INT32
        tensor_shape {
          dim {
            size: 2
          }
        }
        tensor_content: "\034\000\000\000\034\000\000\000"
      }
    }
  }
}
node {
  name: "Reshape_69"
  op: "Reshape"
  input: "Const_69"
  input: "Reshape_69/shape"
  device: "/device:CPU:0"
  attr {
    key: "T"
    value {
      type: DT_UINT8
    }
  }
  attr {
    key: "Tshape"
    value {
      type: DT_INT32
    }
  }
  attr {
    key: "_output_shapes"
    value {
      list {
        shape {
          dim {
            size: 28
          }
          dim {
            size: 28
          }
        }
      }
    }
  }
}
node {
  name: "Cast_69"
  op: "Cast"
  input: "Reshape_69"
  device: "/device:CPU:0"
  attr {
    key: "DstT"
    value {
      type: DT_HALF
    }
  }
  attr {
    key: "SrcT"
    value {
      type: DT_UINT8
    }
  }
  attr {
    key: "_output_shapes"
    value {
      list {
        shape {
          dim {
            size: 28
          }
          dim {
            size: 28
          }
        }
      }
    }
  }
}
node {
  name: "Const_70"
  op: "Const"
  device: "/device:CPU:0"
  attr {
    key: "_output_shapes"
    value {
      list {
        shape {
          dim {
            size: 784
          }
        }
      }
    }
  }
  attr {
    key: "dtype"
    value {
      type: DT_UINT8
    }
  }
  attr {
    key: "value"
    value {
      tensor {
        dtype: DT_UINT8
        tensor_shape {
          dim {
            size: 784
          }
        }
        tensor_content: "…"
      }
    }
  }
}
node {
  name: "Reshape_70/shape"
  op: "Const"
  device: "/device:CPU:0"
  attr {
    key: "_output_shapes"
    value {
      list {
        shape {
          dim {
            size: 2
          }
        }
      }
    }
  }
  attr {
    key: "dtype"
    value {
      type: DT_INT32
    }
  }
  attr {
    key: "value"
    value {
      tensor {
        dtype: DT_INT32
        tensor_shape {
          dim {
            size: 2
          }
        }
        tensor_content: "\034\000\000\000\034\000\000\000"
      }
    }
  }
}
node {
  name: "Reshape_70"
  op: "Reshape"
  input: "Const_70"
  input: "Reshape_70/shape"
  device: "/device:CPU:0"
  attr {
    key: "T"
    value {
      type: DT_UINT8
    }
  }
  attr {
    key: "Tshape"
    value {
      type: DT_INT32
    }
  }
  attr {
    key: "_output_shapes"
    value {
      list {
        shape {
          dim {
            size: 28
          }
          dim {
            size: 28
          }
        }
      }
    }
  }
}
node {
  name: "Cast_70"
  op: "Cast"
  input: "Reshape_70"
  device: "/device:CPU:0"
  attr {
    key: "DstT"
    value {
      type: DT_HALF
    }
  }
  attr {
    key: "SrcT"
    value {
      type: DT_UINT8
    }
  }
  attr {
    key: "_output_shapes"
    value {
      list {
        shape {
          dim {
            size: 28
          }
          dim {
            size: 28
          }
        }
      }
    }
  }
}
node {
  name: "Const_71"
  op: "Const"
  device: "/device:CPU:0"
  attr {
    key: "_output_shapes"
    value {
      list {
        shape {
          dim {
            size: 784
          }
        }
      }
    }
  }
  attr {
    key: "dtype"
    value {
      type: DT_UINT8
    }
  }
  attr {
    key: "value"
    value {
      tensor {
        dtype: DT_UINT8
        tensor_shape {
          dim {
            size: 784
          }
        }
        tensor_content: "…"
      }
    }
  }
}
node {
  name: "Reshape_71/shape"
  op: "Const"
  device: "/device:CPU:0"
  attr {
    key: "_output_shapes"
    value {
      list {
        shape {
          dim {
            size: 2
          }
        }
      }
    }
  }
  attr {
    key: "dtype"
    value {
      type: DT_INT32
    }
  }
  attr {
    key: "value"
    value {
      tensor {
        dtype: DT_INT32
        tensor_shape {
          dim {
            size: 2
          }
        }
        tensor_content: "\034\000\000\000\034\000\000\000"
      }
    }
  }
}
node {
  name: "Reshape_71"
  op: "Reshape"
  input: "Const_71"
  input: "Reshape_71/shape"
  device: "/device:CPU:0"
  attr {
    key: "T"
    value {
      type: DT_UINT8
    }
  }
  attr {
    key: "Tshape"
    value {
      type: DT_INT32
    }
  }
  attr {
    key: "_output_shapes"
    value {
      list {
        shape {
          dim {
            size: 28
          }
          dim {
            size: 28
          }
        }
      }
    }
  }
}
node {
  name: "Cast_71"
  op: "Cast"
  input: "Reshape_71"
  device: "/device:CPU:0"
  attr {
    key: "DstT"
    value {
      type: DT_HALF
    }
  }
  attr {
    key: "SrcT"
    value {
      type: DT_UINT8
    }
  }
  attr {
    key: "_output_shapes"
    value {
      list {
        shape {
          dim {
            size: 28
          }
          dim {
            size: 28
          }
        }
      }
    }
  }
}
node {
  name: "Const_72"
  op: "Const"
  device: "/device:CPU:0"
  attr {
    key: "_output_shapes"
    value {
      list {
        shape {
          dim {
            size: 784
          }
        }
      }
    }
  }
  attr {
    key: "dtype"
    value {
      type: DT_UINT8
    }
  }
  attr {
    key: "value"
    value {
      tensor {
        dtype: DT_UINT8
        tensor_shape {
          dim {
            size: 784
          }
        }
        tensor_content: "…"
      }
    }
  }
}
node {
  name: "Reshape_72/shape"
  op: "Const"
  device: "/device:CPU:0"
  attr {
    key: "_output_shapes"
    value {
      list {
        shape {
          dim {
            size: 2
          }
        }
      }
    }
  }
  attr {
    key: "dtype"
    value {
      type: DT_INT32
    }
  }
  attr {
    key: "value"
    value {
      tensor {
        dtype: DT_INT32
        tensor_shape {
          dim {
            size: 2
          }
        }
        tensor_content: "\034\000\000\000\034\000\000\000"
      }
    }
  }
}
node {
  name: "Reshape_72"
  op: "Reshape"
  input: "Const_72"
  input: "Reshape_72/shape"
  device: "/device:CPU:0"
  attr {
    key: "T"
    value {
      type: DT_UINT8
    }
  }
  attr {
    key: "Tshape"
    value {
      type: DT_INT32
    }
  }
  attr {
    key: "_output_shapes"
    value {
      list {
        shape {
          dim {
            size: 28
          }
          dim {
            size: 28
          }
        }
      }
    }
  }
}
node {
  name: "Cast_72"
  op: "Cast"
  input: "Reshape_72"
  device: "/device:CPU:0"
  attr {
    key: "DstT"
    value {
      type: DT_HALF
    }
  }
  attr {
    key: "SrcT"
    value {
      type: DT_UINT8
    }
  }
  attr {
    key: "_output_shapes"
    value {
      list {
        shape {
          dim {
            size: 28
          }
          dim {
            size: 28
          }
        }
      }
    }
  }
}
node {
  name: "Const_73"
  op: "Const"
  device: "/device:CPU:0"
  attr {
    key: "_output_shapes"
    value {
      list {
        shape {
          dim {
            size: 784
          }
        }
      }
    }
  }
  attr {
    key: "dtype"
    value {
      type: DT_UINT8
    }
  }
  attr {
    key: "value"
    value {
      tensor {
        dtype: DT_UINT8
        tensor_shape {
          dim {
            size: 784
          }
        }
        tensor_content: "…"
      }
    }
  }
}
node {
  name: "Reshape_73/shape"
  op: "Const"
  device: "/device:CPU:0"
  attr {
    key: "_output_shapes"
    value {
      list {
        shape {
          dim {
            size: 2
          }
        }
      }
    }
  }
  attr {
    key: "dtype"
    value {
      type: DT_INT32
    }
  }
  attr {
    key: "value"
    value {
      tensor {
        dtype: DT_INT32
        tensor_shape {
          dim {
            size: 2
          }
        }
        tensor_content: "\034\000\000\000\034\000\000\000"
      }
    }
  }
}
node {
  name: "Reshape_73"
  op: "Reshape"
  input: "Const_73"
  input: "Reshape_73/shape"
  device: "/device:CPU:0"
  attr {
    key: "T"
    value {
      type: DT_UINT8
    }
  }
  attr {
    key: "Tshape"
    value {
      type: DT_INT32
    }
  }
  attr {
    key: "_output_shapes"
    value {
      list {
        shape {
          dim {
            size: 28
          }
          dim {
            size: 28
          }
        }
      }
    }
  }
}
node {
  name: "Cast_73"
  op: "Cast"
  input: "Reshape_73"
  device: "/device:CPU:0"
  attr {
    key: "DstT"
    value {
      type: DT_HALF
    }
  }
  attr {
    key: "SrcT"
    value {
      type: DT_UINT8
    }
  }
  attr {
    key: "_output_shapes"
    value {
      list {
        shape {
          dim {
            size: 28
          }
          dim {
            size: 28
          }
        }
      }
    }
  }
}
node {
  name: "Const_74"
  op: "Const"
  device: "/device:CPU:0"
  attr {
    key: "_output_shapes"
    value {
      list {
        shape {
          dim {
            size: 784
          }
        }
      }
    }
  }
  attr {
    key: "dtype"
    value {
      type: DT_UINT8
    }
  }
  attr {
    key: "value"
    value {
      tensor {
        dtype: DT_UINT8
        tensor_shape {
          dim {
            size: 784
          }
        }
        tensor_content: "…"
      }
    }
  }
}
node {
  name: "Reshape_74/shape"
  op: "Const"
  device: "/device:CPU:0"
  attr {
    key: "_output_shapes"
    value {
      list {
        shape {
          dim {
            size: 2
          }
        }
      }
    }
  }
  attr {
    key: "dtype"
    value {
      type: DT_INT32
    }
  }
  attr {
    key: "value"
    value {
      tensor {
        dtype: DT_INT32
        tensor_shape {
          dim {
            size: 2
          }
        }
        tensor_content: "\034\000\000\000\034\000\000\000"
      }
    }
  }
}
node {
  name: "Reshape_74"
  op: "Reshape"
  input: "Const_74"
  input: "Reshape_74/shape"
  device: "/device:CPU:0"
  attr {
    key: "T"
    value {
      type: DT_UINT8
    }
  }
  attr {
    key: "Tshape"
    value {
      type: DT_INT32
    }
  }
  attr {
    key: "_output_shapes"
    value {
      list {
        shape {
          dim {
            size: 28
          }
          dim {
            size: 28
          }
        }
      }
    }
  }
}
node {
  name: "Cast_74"
  op: "Cast"
  input: "Reshape_74"
  device: "/device:CPU:0"
  attr {
    key: "DstT"
    value {
      type: DT_HALF
    }
  }
  attr {
    key: "SrcT"
    value {
      type: DT_UINT8
    }
  }
  attr {
    key: "_output_shapes"
    value {
      list {
        shape {
          dim {
            size: 28
          }
          dim {
            size: 28
          }
        }
      }
    }
  }
}
node {
  name: "Const_75"
  op: "Const"
  device: "/device:CPU:0"
  attr {
    key: "_output_shapes"
    value {
      list {
        shape {
          dim {
            size: 784
          }
        }
      }
    }
  }
  attr {
    key: "dtype"
    value {
      type: DT_UINT8
    }
  }
  attr {
    key: "value"
    value {
      tensor {
        dtype: DT_UINT8
        tensor_shape {
          dim {
            size: 784
          }
        }
        tensor_content: "…"
      }
    }
  }
}
node {
  name: "Reshape_75/shape"
  op: "Const"
  device: "/device:CPU:0"
  attr {
    key: "_output_shapes"
    value {
      list {
        shape {
          dim {
            size: 2
          }
        }
      }
    }
  }
  attr {
    key: "dtype"
    value {
      type: DT_INT32
    }
  }
  attr {
    key: "value"
    value {
      tensor {
        dtype: DT_INT32
        tensor_shape {
          dim {
            size: 2
          }
        }
        tensor_content: "\034\000\000\000\034\000\000\000"
      }
    }
  }
}
node {
  name: "Reshape_75"
  op: "Reshape"
  input: "Const_75"
  input: "Reshape_75/shape"
  device: "/device:CPU:0"
  attr {
    key: "T"
    value {
      type: DT_UINT8
…
  input: "report_uninitialized_variables_1/IsVariableInitialized_10"
  input: "report_uninitialized_variables_1/IsVariableInitialized_11"
  input: "report_uninitialized_variables_1/IsVariableInitialized_12"
  input: "report_uninitialized_variables_1/IsVariableInitialized_13"
  input: "report_uninitialized_variables_1/IsVariableInitialized_14"
  input: "report_uninitialized_variables_1/IsVariableInitialized_15"
  input: "report_uninitialized_variables_1/IsVariableInitialized_16"
  input: "report_uninitialized_variables_1/IsVariableInitialized_17"
  input: "report_uninitialized_variables_1/IsVariableInitialized_18"
  input: "report_uninitialized_variables_1/IsVariableInitialized_19"
  input: "report_uninitialized_variables_1/IsVariableInitialized_20"
  input: "report_uninitialized_variables_1/IsVariableInitialized_21"
  input: "report_uninitialized_variables_1/IsVariableInitialized_22"
  input: "report_uninitialized_variables_1/IsVariableInitialized_23"
  input: "report_uninitialized_variables_1/IsVariableInitialized_24"
  input: "report_uninitialized_variables_1/IsVariableInitialized_25"
  input: "report_uninitialized_variables_1/IsVariableInitialized_26"
  device: "/device:CPU:0"
  attr {
    key: "N"
    value {
      i: 27
    }
  }
  attr {
    key: "T"
    value {
      type: DT_BOOL
    }
  }
  attr {
    key: "_output_shapes"
    value {
      list {
        shape {
          dim {
            size: 27
          }
        }
      }
    }
  }
  attr {
    key: "axis"
    value {
      i: 0
    }
  }
}
node {
  name: "report_uninitialized_variables_1/LogicalNot"
  op: "LogicalNot"
  input: "report_uninitialized_variables_1/stack"
  device: "/device:CPU:0"
  attr {
    key: "_output_shapes"
    value {
      list {
        shape {
          dim {
            size: 27
          }
        }
      }
    }
  }
}
node {
  name: "report_uninitialized_variables_1/Const"
  op: "Const"
  device: "/device:CPU:0"
  attr {
    key: "_output_shapes"
    value {
      list {
        shape {
          dim {
            size: 27
          }
        }
      }
    }
  }
  attr {
    key: "dtype"
    value {
      type: DT_STRING
    }
  }
  attr {
    key: "value"
    value {
      tensor {
        dtype: DT_STRING
        tensor_shape {
          dim {
            size: 27
          }
        }
        string_val: "global_step"
        string_val: "conv2d/kernel"
        string_val: "conv2d/bias"
        string_val: "conv2d_1/kernel"
        string_val: "conv2d_1/bias"
        string_val: "dense/kernel"
        string_val: "dense/bias"
        string_val: "dense_1/kernel"
        string_val: "dense_1/bias"
        string_val: "beta1_power"
        string_val: "beta2_power"
        string_val: "conv2d/kernel/Adam"
        string_val: "conv2d/kernel/Adam_1"
        string_val: "conv2d/bias/Adam"
        string_val: "conv2d/bias/Adam_1"
        string_val: "conv2d_1/kernel/Adam"
        string_val: "conv2d_1/kernel/Adam_1"
        string_val: "conv2d_1/bias/Adam"
        string_val: "conv2d_1/bias/Adam_1"
        string_val: "dense/kernel/Adam"
        string_val: "dense/kernel/Adam_1"
        string_val: "dense/bias/Adam"
        string_val: "dense/bias/Adam_1"
        string_val: "dense_1/kernel/Adam"
        string_val: "dense_1/kernel/Adam_1"
        string_val: "dense_1/bias/Adam"
        string_val: "dense_1/bias/Adam_1"
      }
    }
  }
}
node {
  name: "report_uninitialized_variables_1/boolean_mask/Shape"
  op: "Const"
  device: "/device:CPU:0"
  attr {
    key: "_output_shapes"
    value {
      list {
        shape {
          dim {
            size: 1
          }
        }
      }
    }
  }
  attr {
    key: "dtype"
    value {
      type: DT_INT32
    }
  }
  attr {
    key: "value"
    value {
      tensor {
        dtype: DT_INT32
        tensor_shape {
          dim {
            size: 1
          }
        }
        int_val: 27
      }
    }
  }
}
node {
  name: "report_uninitialized_variables_1/boolean_mask/strided_slice/stack"
  op: "Const"
  device: "/device:CPU:0"
  attr {
    key: "_output_shapes"
    value {
      list {
        shape {
          dim {
            size: 1
          }
        }
      }
    }
  }
  attr {
    key: "dtype"
    value {
      type: DT_INT32
    }
  }
  attr {
    key: "value"
    value {
      tensor {
        dtype: DT_INT32
        tensor_shape {
          dim {
            size: 1
          }
        }
        int_val: 0
      }
    }
  }
}
node {
  name: "report_uninitialized_variables_1/boolean_mask/strided_slice/stack_1"
  op: "Const"
  device: "/device:CPU:0"
  attr {
    key: "_output_shapes"
    value {
      list {
        shape {
          dim {
            size: 1
          }
        }
      }
    }
  }
  attr {
    key: "dtype"
    value {
      type: DT_INT32
    }
  }
  attr {
    key: "value"
    value {
      tensor {
        dtype: DT_INT32
        tensor_shape {
          dim {
            size: 1
          }
        }
        int_val: 1
      }
    }
  }
}
node {
  name: "report_uninitialized_variables_1/boolean_mask/strided_slice/stack_2"
  op: "Const"
  device: "/device:CPU:0"
  attr {
    key: "_output_shapes"
    value {
      list {
        shape {
          dim {
            size: 1
          }
        }
      }
    }
  }
  attr {
    key: "dtype"
    value {
      type: DT_INT32
    }
  }
  attr {
    key: "value"
    value {
      tensor {
        dtype: DT_INT32
        tensor_shape {
          dim {
            size: 1
          }
        }
        int_val: 1
      }
    }
  }
}
node {
  name: "report_uninitialized_variables_1/boolean_mask/strided_slice"
  op: "StridedSlice"
  input: "report_uninitialized_variables_1/boolean_mask/Shape"
  input: "report_uninitialized_variables_1/boolean_mask/strided_slice/stack"
  input: "report_uninitialized_variables_1/boolean_mask/strided_slice/stack_1"
  input: "report_uninitialized_variables_1/boolean_mask/strided_slice/stack_2"
  device: "/device:CPU:0"
  attr {
    key: "Index"
    value {
      type: DT_INT32
    }
  }
  attr {
    key: "T"
    value {
      type: DT_INT32
    }
  }
  attr {
    key: "_output_shapes"
    value {
      list {
        shape {
          dim {
            size: 1
          }
        }
      }
    }
  }
  attr {
    key: "begin_mask"
    value {
      i: 0
    }
  }
  attr {
    key: "ellipsis_mask"
    value {
      i: 0
    }
  }
  attr {
    key: "end_mask"
    value {
      i: 0
    }
  }
  attr {
    key: "new_axis_mask"
    value {
      i: 0
    }
  }
  attr {
    key: "shrink_axis_mask"
    value {
      i: 0
    }
  }
}
node {
  name: "report_uninitialized_variables_1/boolean_mask/Prod/reduction_indices"
  op: "Const"
  device: "/device:CPU:0"
  attr {
    key: "_output_shapes"
    value {
      list {
        shape {
          dim {
            size: 1
          }
        }
      }
    }
  }
  attr {
    key: "dtype"
    value {
      type: DT_INT32
    }
  }
  attr {
    key: "value"
    value {
      tensor {
        dtype: DT_INT32
        tensor_shape {
          dim {
            size: 1
          }
        }
        int_val: 0
      }
    }
  }
}
node {
  name: "report_uninitialized_variables_1/boolean_mask/Prod"
  op: "Prod"
  input: "report_uninitialized_variables_1/boolean_mask/strided_slice"
  input: "report_uninitialized_variables_1/boolean_mask/Prod/reduction_indices"
  device: "/device:CPU:0"
  attr {
    key: "T"
    value {
      type: DT_INT32
    }
  }
  attr {
    key: "Tidx"
    value {
      type: DT_INT32
    }
  }
  attr {
    key: "_output_shapes"
    value {
      list {
        shape {
        }
      }
    }
  }
  attr {
    key: "keep_dims"
    value {
      b: false
    }
  }
}
node {
  name: "report_uninitialized_variables_1/boolean_mask/Shape_1"
  op: "Const"
  device: "/device:CPU:0"
  attr {
    key: "_output_shapes"
    value {
      list {
        shape {
          dim {
            size: 1
          }
        }
      }
    }
  }
  attr {
    key: "dtype"
    value {
      type: DT_INT32
    }
  }
  attr {
    key: "value"
    value {
      tensor {
        dtype: DT_INT32
        tensor_shape {
          dim {
            size: 1
          }
        }
        int_val: 27
      }
    }
  }
}
node {
  name: "report_uninitialized_variables_1/boolean_mask/strided_slice_1/stack"
  op: "Const"
  device: "/device:CPU:0"
  attr {
    key: "_output_shapes"
    value {
      list {
        shape {
          dim {
            size: 1
          }
        }
      }
    }
  }
  attr {
    key: "dtype"
    value {
      type: DT_INT32
    }
  }
  attr {
    key: "value"
    value {
      tensor {
        dtype: DT_INT32
        tensor_shape {
          dim {
            size: 1
          }
        }
        int_val: 0
      }
    }
  }
}
node {
  name: "report_uninitialized_variables_1/boolean_mask/strided_slice_1/stack_1"
  op: "Const"
  device: "/device:CPU:0"
  attr {
    key: "_output_shapes"
    value {
      list {
        shape {
          dim {
            size: 1
          }
        }
      }
    }
  }
  attr {
    key: "dtype"
    value {
      type: DT_INT32
    }
  }
  attr {
    key: "value"
    value {
      tensor {
        dtype: DT_INT32
        tensor_shape {
          dim {
            size: 1
          }
        }
        int_val: 0
      }
    }
  }
}
node {
  name: "report_uninitialized_variables_1/boolean_mask/strided_slice_1/stack_2"
  op: "Const"
  device: "/device:CPU:0"
  attr {
    key: "_output_shapes"
    value {
      list {
        shape {
          dim {
            size: 1
          }
        }
      }
    }
  }
  attr {
    key: "dtype"
    value {
      type: DT_INT32
    }
  }
  attr {
    key: "value"
    value {
      tensor {
        dtype: DT_INT32
        tensor_shape {
          dim {
            size: 1
          }
        }
        int_val: 1
      }
    }
  }
}
node {
  name: "report_uninitialized_variables_1/boolean_mask/strided_slice_1"
  op: "StridedSlice"
  input: "report_uninitialized_variables_1/boolean_mask/Shape_1"
  input: "report_uninitialized_variables_1/boolean_mask/strided_slice_1/stack"
  input: "report_uninitialized_variables_1/boolean_mask/strided_slice_1/stack_1"
  input: "report_uninitialized_variables_1/boolean_mask/strided_slice_1/stack_2"
  device: "/device:CPU:0"
  attr {
    key: "Index"
    value {
      type: DT_INT32
    }
  }
  attr {
    key: "T"
    value {
      type: DT_INT32
    }
  }
  attr {
    key: "_output_shapes"
    value {
      list {
        shape {
          dim {
          }
        }
      }
    }
  }
  attr {
    key: "begin_mask"
    value {
      i: 1
    }
  }
  attr {
    key: "ellipsis_mask"
    value {
      i: 0
    }
  }
  attr {
    key: "end_mask"
    value {
      i: 0
    }
  }
  attr {
    key: "new_axis_mask"
    value {
      i: 0
    }
  }
  attr {
    key: "shrink_axis_mask"
    value {
      i: 0
    }
  }
}
node {
  name: "report_uninitialized_variables_1/boolean_mask/Shape_2"
  op: "Const"
  device: "/device:CPU:0"
  attr {
    key: "_output_shapes"
    value {
      list {
        shape {
          dim {
            size: 1
          }
        }
      }
    }
  }
  attr {
    key: "dtype"
    value {
      type: DT_INT32
    }
  }
  attr {
    key: "value"
    value {
      tensor {
        dtype: DT_INT32
        tensor_shape {
          dim {
            size: 1
          }
        }
        int_val: 27
      }
    }
  }
}
node {
  name: "report_uninitialized_variables_1/boolean_mask/strided_slice_2/stack"
  op: "Const"
  device: "/device:CPU:0"
  attr {
    key: "_output_shapes"
    value {
      list {
        shape {
          dim {
            size: 1
          }
        }
      }
    }
  }
  attr {
    key: "dtype"
    value {
      type: DT_INT32
    }
  }
  attr {
    key: "value"
    value {
      tensor {
        dtype: DT_INT32
        tensor_shape {
          dim {
            size: 1
          }
        }
        int_val: 1
      }
    }
  }
}
node {
  name: "report_uninitialized_variables_1/boolean_mask/strided_slice_2/stack_1"
  op: "Const"
  device: "/device:CPU:0"
  attr {
    key: "_output_shapes"
    value {
      list {
        shape {
          dim {
            size: 1
          }
        }
      }
    }
  }
  attr {
    key: "dtype"
    value {
      type: DT_INT32
    }
  }
  attr {
    key: "value"
    value {
      tensor {
        dtype: DT_INT32
        tensor_shape {
          dim {
            size: 1
          }
        }
        int_val: 0
      }
    }
  }
}
node {
  name: "report_uninitialized_variables_1/boolean_mask/strided_slice_2/stack_2"
  op: "Const"
  device: "/device:CPU:0"
  attr {
    key: "_output_shapes"
    value {
      list {
        shape {
          dim {
            size: 1
          }
        }
      }
    }
  }
  attr {
    key: "dtype"
    value {
      type: DT_INT32
    }
  }
  attr {
    key: "value"
    value {
      tensor {
        dtype: DT_INT32
        tensor_shape {
          dim {
            size: 1
          }
        }
        int_val: 1
      }
    }
  }
}
node {
  name: "report_uninitialized_variables_1/boolean_mask/strided_slice_2"
  op: "StridedSlice"
  input: "report_uninitialized_variables_1/boolean_mask/Shape_2"
  input: "report_uninitialized_variables_1/boolean_mask/strided_slice_2/stack"
  input: "report_uninitialized_variables_1/boolean_mask/strided_slice_2/stack_1"
  input: "report_uninitialized_variables_1/boolean_mask/strided_slice_2/stack_2"
  device: "/device:CPU:0"
  attr {
    key: "Index"
    value {
      type: DT_INT32
    }
  }
  attr {
    key: "T"
    value {
      type: DT_INT32
    }
  }
  attr {
    key: "_output_shapes"
    value {
      list {
        shape {
          dim {
          }
        }
      }
    }
  }
  attr {
    key: "begin_mask"
    value {
      i: 0
    }
  }
  attr {
    key: "ellipsis_mask"
    value {
      i: 0
    }
  }
  attr {
    key: "end_mask"
    value {
      i: 1
    }
  }
  attr {
    key: "new_axis_mask"
    value {
      i: 0
    }
  }
  attr {
    key: "shrink_axis_mask"
    value {
      i: 0
    }
  }
}
node {
  name: "report_uninitialized_variables_1/boolean_mask/concat/values_1"
  op: "Pack"
  input: "report_uninitialized_variables_1/boolean_mask/Prod"
  device: "/device:CPU:0"
  attr {
    key: "N"
    value {
      i: 1
    }
  }
  attr {
    key: "T"
    value {
      type: DT_INT32
    }
  }
  attr {
    key: "_output_shapes"
    value {
      list {
        shape {
          dim {
            size: 1
          }
        }
      }
    }
  }
  attr {
    key: "axis"
    value {
      i: 0
    }
  }
}
node {
  name: "report_uninitialized_variables_1/boolean_mask/concat/axis"
  op: "Const"
  device: "/device:CPU:0"
  attr {
    key: "_output_shapes"
    value {
      list {
        shape {
        }
      }
    }
  }
  attr {
    key: "dtype"
    value {
      type: DT_INT32
    }
  }
  attr {
    key: "value"
    value {
      tensor {
        dtype: DT_INT32
        tensor_shape {
        }
        int_val: 0
      }
    }
  }
}
node {
  name: "report_uninitialized_variables_1/boolean_mask/concat"
  op: "ConcatV2"
  input: "report_uninitialized_variables_1/boolean_mask/strided_slice_1"
  input: "report_uninitialized_variables_1/boolean_mask/concat/values_1"
  input: "report_uninitialized_variables_1/boolean_mask/strided_slice_2"
  input: "report_uninitialized_variables_1/boolean_mask/concat/axis"
  device: "/device:CPU:0"
  attr {
    key: "N"
    value {
      i: 3
    }
  }
  attr {
    key: "T"
    value {
      type: DT_INT32
    }
  }
  attr {
    key: "Tidx"
    value {
      type: DT_INT32
    }
  }
  attr {
    key: "_output_shapes"
    value {
      list {
        shape {
          dim {
            size: 1
          }
        }
      }
    }
  }
}
node {
  name: "report_uninitialized_variables_1/boolean_mask/Reshape"
  op: "Reshape"
  input: "report_uninitialized_variables_1/Const"
  input: "report_uninitialized_variables_1/boolean_mask/concat"
  device: "/device:CPU:0"
  attr {
    key: "T"
    value {
      type: DT_STRING
    }
  }
  attr {
    key: "Tshape"
    value {
      type: DT_INT32
    }
  }
  attr {
    key: "_output_shapes"
    value {
      list {
        shape {
          dim {
            size: 27
          }
        }
      }
    }
  }
}
node {
  name: "report_uninitialized_variables_1/boolean_mask/Reshape_1/shape"
  op: "Const"
  device: "/device:CPU:0"
  attr {
    key: "_output_shapes"
    value {
      list {
        shape {
          dim {
            size: 1
          }
        }
      }
    }
  }
  attr {
    key: "dtype"
    value {
      type: DT_INT32
    }
  }
  attr {
    key: "value"
    value {
      tensor {
        dtype: DT_INT32
        tensor_shape {
          dim {
            size: 1
          }
        }
        int_val: -1
      }
    }
  }
}
node {
  name: "report_uninitialized_variables_1/boolean_mask/Reshape_1"
  op: "Reshape"
  input: "report_uninitialized_variables_1/LogicalNot"
  input: "report_uninitialized_variables_1/boolean_mask/Reshape_1/shape"
  device: "/device:CPU:0"
  attr {
    key: "T"
    value {
      type: DT_BOOL
    }
  }
  attr {
    key: "Tshape"
    value {
      type: DT_INT32
    }
  }
  attr {
    key: "_output_shapes"
    value {
      list {
        shape {
          dim {
            size: 27
          }
        }
      }
    }
  }
}
node {
  name: "report_uninitialized_variables_1/boolean_mask/Where"
  op: "Where"
  input: "report_uninitialized_variables_1/boolean_mask/Reshape_1"
  device: "/device:CPU:0"
  attr {
    key: "T"
    value {
      type: DT_BOOL
    }
  }
  attr {
    key: "_output_shapes"
    value {
      list {
        shape {
          dim {
            size: -1
          }
          dim {
            size: 1
          }
        }
      }
    }
  }
}
node {
  name: "report_uninitialized_variables_1/boolean_mask/Squeeze"
  op: "Squeeze"
  input: "report_uninitialized_variables_1/boolean_mask/Where"
  device: "/device:CPU:0"
  attr {
    key: "T"
    value {
      type: DT_INT64
    }
  }
  attr {
    key: "_output_shapes"
    value {
      list {
        shape {
          dim {
            size: -1
          }
        }
      }
    }
  }
  attr {
    key: "squeeze_dims"
    value {
      list {
        i: 1
      }
    }
  }
}
node {
  name: "report_uninitialized_variables_1/boolean_mask/GatherV2/axis"
  op: "Const"
  device: "/device:CPU:0"
  attr {
    key: "_output_shapes"
    value {
      list {
        shape {
        }
      }
    }
  }
  attr {
    key: "dtype"
    value {
      type: DT_INT32
    }
  }
  attr {
    key: "value"
    value {
      tensor {
        dtype: DT_INT32
        tensor_shape {
        }
        int_val: 0
      }
    }
  }
}
node {
  name: "report_uninitialized_variables_1/boolean_mask/GatherV2"
  op: "GatherV2"
  input: "report_uninitialized_variables_1/boolean_mask/Reshape"
  input: "report_uninitialized_variables_1/boolean_mask/Squeeze"
  input: "report_uninitialized_variables_1/boolean_mask/GatherV2/axis"
  device: "/device:CPU:0"
  attr {
    key: "Taxis"
    value {
      type: DT_INT32
    }
  }
  attr {
    key: "Tindices"
    value {
      type: DT_INT64
    }
  }
  attr {
    key: "Tparams"
    value {
      type: DT_STRING
    }
  }
  attr {
    key: "_output_shapes"
    value {
      list {
        shape {
          dim {
            size: -1
          }
        }
      }
    }
  }
}
node {
  name: "init_2"
  op: "NoOp"
  input: "^acc_op/count/Assign"
  input: "^acc_op/total/Assign"
}
node {
  name: "init_all_tables"
  op: "NoOp"
}
node {
  name: "init_3"
  op: "NoOp"
}
node {
  name: "group_deps_1"
  op: "NoOp"
  input: "^init_2"
  input: "^init_3"
  input: "^init_all_tables"
}
node {
  name: "Merge/MergeSummary"
  op: "MergeSummary"
  input: "accuracy"
  input: "loss"
  attr {
    key: "N"
    value {
      i: 2
    }
  }
  attr {
    key: "_output_shapes"
    value {
      list {
        shape {
        }
      }
    }
  }
}
node {
  name: "save/Const"
  op: "Const"
  attr {
    key: "_output_shapes"
    value {
      list {
        shape {
        }
      }
    }
  }
  attr {
    key: "dtype"
    value {
      type: DT_STRING
    }
  }
  attr {
    key: "value"
    value {
      tensor {
        dtype: DT_STRING
        tensor_shape {
        }
        string_val: "model"
      }
    }
  }
}
node {
  name: "save/StringJoin/inputs_1"
  op: "Const"
  attr {
    key: "_output_shapes"
    value {
      list {
        shape {
        }
      }
    }
  }
  attr {
    key: "dtype"
    value {
      type: DT_STRING
    }
  }
  attr {
    key: "value"
    value {
      tensor {
        dtype: DT_STRING
        tensor_shape {
        }
        string_val: "_temp_0bad20bfa8c14ac68a9bb5b73aa69f68/part"
      }
    }
  }
}
node {
  name: "save/StringJoin"
  op: "StringJoin"
  input: "save/Const"
  input: "save/StringJoin/inputs_1"
  attr {
    key: "N"
    value {
      i: 2
    }
  }
  attr {
    key: "_output_shapes"
    value {
      list {
        shape {
        }
      }
    }
  }
  attr {
    key: "separator"
    value {
      s: ""
    }
  }
}
node {
  name: "save/num_shards"
  op: "Const"
  attr {
    key: "_output_shapes"
    value {
      list {
        shape {
        }
      }
    }
  }
  attr {
    key: "dtype"
    value {
      type: DT_INT32
    }
  }
  attr {
    key: "value"
    value {
      tensor {
        dtype: DT_INT32
        tensor_shape {
        }
        int_val: 1
      }
    }
  }
}
node {
  name: "save/ShardedFilename/shard"
  op: "Const"
  device: "/device:CPU:0"
  attr {
    key: "_output_shapes"
    value {
      list {
        shape {
        }
      }
    }
  }
  attr {
    key: "dtype"
    value {
      type: DT_INT32
    }
  }
  attr {
    key: "value"
    value {
      tensor {
        dtype: DT_INT32
        tensor_shape {
        }
        int_val: 0
      }
    }
  }
}
node {
  name: "save/ShardedFilename"
  op: "ShardedFilename"
  input: "save/StringJoin"
  input: "save/ShardedFilename/shard"
  input: "save/num_shards"
  device: "/device:CPU:0"
  attr {
    key: "_output_shapes"
    value {
      list {
        shape {
        }
      }
    }
  }
}
node {
  name: "save/SaveV2/tensor_names"
  op: "Const"
  device: "/device:CPU:0"
  attr {
    key: "_output_shapes"
    value {
      list {
        shape {
          dim {
            size: 27
          }
        }
      }
    }
  }
  attr {
    key: "dtype"
    value {
      type: DT_STRING
    }
  }
  attr {
    key: "value"
    value {
      tensor {
        dtype: DT_STRING
        tensor_shape {
          dim {
            size: 27
          }
        }
        string_val: "beta1_power"
        string_val: "beta2_power"
        string_val: "conv2d/bias"
        string_val: "conv2d/bias/Adam"
        string_val: "conv2d/bias/Adam_1"
        string_val: "conv2d/kernel"
        string_val: "conv2d/kernel/Adam"
        string_val: "conv2d/kernel/Adam_1"
        string_val: "conv2d_1/bias"
        string_val: "conv2d_1/bias/Adam"
        string_val: "conv2d_1/bias/Adam_1"
        string_val: "conv2d_1/kernel"
        string_val: "conv2d_1/kernel/Adam"
        string_val: "conv2d_1/kernel/Adam_1"
        string_val: "dense/bias"
        string_val: "dense/bias/Adam"
        string_val: "dense/bias/Adam_1"
        string_val: "dense/kernel"
        string_val: "dense/kernel/Adam"
        string_val: "dense/kernel/Adam_1"
        string_val: "dense_1/bias"
        string_val: "dense_1/bias/Adam"
        string_val: "dense_1/bias/Adam_1"
        string_val: "dense_1/kernel"
        string_val: "dense_1/kernel/Adam"
        string_val: "dense_1/kernel/Adam_1"
        string_val: "global_step"
      }
    }
  }
}
node {
  name: "save/SaveV2/shape_and_slices"
  op: "Const"
  device: "/device:CPU:0"
  attr {
    key: "_output_shapes"
    value {
      list {
        shape {
          dim {
            size: 27
          }
        }
      }
    }
  }
  attr {
    key: "dtype"
    value {
      type: DT_STRING
    }
  }
  attr {
    key: "value"
    value {
      tensor {
        dtype: DT_STRING
        tensor_shape {
          dim {
            size: 27
          }
        }
        string_val: ""
        string_val: ""
        string_val: ""
        string_val: ""
        string_val: ""
        string_val: ""
        string_val: ""
        string_val: ""
        string_val: ""
        string_val: ""
        string_val: ""
        string_val: ""
        string_val: ""
        string_val: ""
        string_val: ""
        string_val: ""
        string_val: ""
        string_val: ""
        string_val: ""
        string_val: ""
        string_val: ""
        string_val: ""
        string_val: ""
        string_val: ""
        string_val: ""
        string_val: ""
        string_val: ""
      }
    }
  }
}
node {
  name: "save/SaveV2"
  op: "SaveV2"
  input: "save/ShardedFilename"
  input: "save/SaveV2/tensor_names"
  input: "save/SaveV2/shape_and_slices"
  input: "beta1_power"
  input: "beta2_power"
  input: "conv2d/bias"
  input: "conv2d/bias/Adam"
  input: "conv2d/bias/Adam_1"
  input: "conv2d/kernel"
  input: "conv2d/kernel/Adam"
  input: "conv2d/kernel/Adam_1"
  input: "conv2d_1/bias"
  input: "conv2d_1/bias/Adam"
  input: "conv2d_1/bias/Adam_1"
  input: "conv2d_1/kernel"
  input: "conv2d_1/kernel/Adam"
  input: "conv2d_1/kernel/Adam_1"
  input: "dense/bias"
  input: "dense/bias/Adam"
  input: "dense/bias/Adam_1"
  input: "dense/kernel"
  input: "dense/kernel/Adam"
  input: "dense/kernel/Adam_1"
  input: "dense_1/bias"
  input: "dense_1/bias/Adam"
  input: "dense_1/bias/Adam_1"
  input: "dense_1/kernel"
  input: "dense_1/kernel/Adam"
  input: "dense_1/kernel/Adam_1"
  input: "global_step"
  device: "/device:CPU:0"
  attr {
    key: "dtypes"
    value {
      list {
        type: DT_FLOAT
        type: DT_FLOAT
        type: DT_HALF
        type: DT_HALF
        type: DT_HALF
        type: DT_HALF
        type: DT_HALF
        type: DT_HALF
        type: DT_HALF
        type: DT_HALF
        type: DT_HALF
        type: DT_HALF
        type: DT_HALF
        type: DT_HALF
        type: DT_HALF
        type: DT_HALF
        type: DT_HALF
        type: DT_HALF
        type: DT_HALF
        type: DT_HALF
        type: DT_HALF
        type: DT_HALF
        type: DT_HALF
        type: DT_HALF
        type: DT_HALF
        type: DT_HALF
        type: DT_INT64
      }
    }
  }
}
node {
  name: "save/control_dependency"
  op: "Identity"
  input: "save/ShardedFilename"
  input: "^save/SaveV2"
  device: "/device:CPU:0"
  attr {
    key: "T"
    value {
      type: DT_STRING
    }
  }
  attr {
    key: "_class"
    value {
      list {
        s: "loc:@save/ShardedFilename"
      }
    }
  }
  attr {
    key: "_output_shapes"
    value {
      list {
        shape {
        }
      }
    }
  }
}
node {
  name: "save/MergeV2Checkpoints/checkpoint_prefixes"
  op: "Pack"
  input: "save/ShardedFilename"
  input: "^save/control_dependency"
  device: "/device:CPU:0"
  attr {
    key: "N"
    value {
      i: 1
    }
  }
  attr {
    key: "T"
    value {
      type: DT_STRING
    }
  }
  attr {
    key: "_output_shapes"
    value {
      list {
        shape {
          dim {
            size: 1
          }
        }
      }
    }
  }
  attr {
    key: "axis"
    value {
      i: 0
    }
  }
}
node {
  name: "save/MergeV2Checkpoints"
  op: "MergeV2Checkpoints"
  input: "save/MergeV2Checkpoints/checkpoint_prefixes"
  input: "save/Const"
  device: "/device:CPU:0"
  attr {
    key: "delete_old_dirs"
    value {
      b: true
    }
  }
}
node {
  name: "save/Identity"
  op: "Identity"
  input: "save/Const"
  input: "^save/MergeV2Checkpoints"
  input: "^save/control_dependency"
  device: "/device:CPU:0"
  attr {
    key: "T"
    value {
      type: DT_STRING
    }
  }
  attr {
    key: "_output_shapes"
    value {
      list {
        shape {
        }
      }
    }
  }
}
node {
  name: "save/RestoreV2/tensor_names"
  op: "Const"
  device: "/device:CPU:0"
  attr {
    key: "_output_shapes"
    value {
      list {
        shape {
          dim {
            size: 27
          }
        }
      }
    }
  }
  attr {
    key: "dtype"
    value {
      type: DT_STRING
    }
  }
  attr {
    key: "value"
    value {
      tensor {
        dtype: DT_STRING
        tensor_shape {
          dim {
            size: 27
          }
        }
        string_val: "beta1_power"
        string_val: "beta2_power"
        string_val: "conv2d/bias"
        string_val: "conv2d/bias/Adam"
        string_val: "conv2d/bias/Adam_1"
        string_val: "conv2d/kernel"
        string_val: "conv2d/kernel/Adam"
        string_val: "conv2d/kernel/Adam_1"
        string_val: "conv2d_1/bias"
        string_val: "conv2d_1/bias/Adam"
        string_val: "conv2d_1/bias/Adam_1"
        string_val: "conv2d_1/kernel"
        string_val: "conv2d_1/kernel/Adam"
        string_val: "conv2d_1/kernel/Adam_1"
        string_val: "dense/bias"
        string_val: "dense/bias/Adam"
        string_val: "dense/bias/Adam_1"
        string_val: "dense/kernel"
        string_val: "dense/kernel/Adam"
        string_val: "dense/kernel/Adam_1"
        string_val: "dense_1/bias"
        string_val: "dense_1/bias/Adam"
        string_val: "dense_1/bias/Adam_1"
        string_val: "dense_1/kernel"
        string_val: "dense_1/kernel/Adam"
        string_val: "dense_1/kernel/Adam_1"
        string_val: "global_step"
      }
    }
  }
}
node {
  name: "save/RestoreV2/shape_and_slices"
  op: "Const"
  device: "/device:CPU:0"
  attr {
    key: "_output_shapes"
    value {
      list {
        shape {
          dim {
            size: 27
          }
        }
      }
    }
  }
  attr {
    key: "dtype"
    value {
      type: DT_STRING
    }
  }
  attr {
    key: "value"
    value {
      tensor {
        dtype: DT_STRING
        tensor_shape {
          dim {
            size: 27
          }
        }
        string_val: ""
        string_val: ""
        string_val: ""
        string_val: ""
        string_val: ""
        string_val: ""
        string_val: ""
        string_val: ""
        string_val: ""
        string_val: ""
        string_val: ""
        string_val: ""
        string_val: ""
        string_val: ""
        string_val: ""
        string_val: ""
        string_val: ""
        string_val: ""
        string_val: ""
        string_val: ""
        string_val: ""
        string_val: ""
        string_val: ""
        string_val: ""
        string_val: ""
        string_val: ""
        string_val: ""
      }
    }
  }
}
node {
  name: "save/RestoreV2"
  op: "RestoreV2"
  input: "save/Const"
  input: "save/RestoreV2/tensor_names"
  input: "save/RestoreV2/shape_and_slices"
  device: "/device:CPU:0"
  attr {
    key: "_output_shapes"
    value {
      list {
        shape {
          unknown_rank: true
        }
        shape {
          unknown_rank: true
        }
        shape {
          unknown_rank: true
        }
        shape {
          unknown_rank: true
        }
        shape {
          unknown_rank: true
        }
        shape {
          unknown_rank: true
        }
        shape {
          unknown_rank: true
        }
        shape {
          unknown_rank: true
        }
        shape {
          unknown_rank: true
        }
        shape {
          unknown_rank: true
        }
        shape {
          unknown_rank: true
        }
        shape {
          unknown_rank: true
        }
        shape {
          unknown_rank: true
        }
        shape {
          unknown_rank: true
        }
        shape {
          unknown_rank: true
        }
        shape {
          unknown_rank: true
        }
        shape {
          unknown_rank: true
        }
        shape {
          unknown_rank: true
        }
        shape {
          unknown_rank: true
        }
        shape {
          unknown_rank: true
        }
        shape {
          unknown_rank: true
        }
        shape {
          unknown_rank: true
        }
        shape {
          unknown_rank: true
        }
        shape {
          unknown_rank: true
        }
        shape {
          unknown_rank: true
        }
        shape {
          unknown_rank: true
        }
        shape {
          unknown_rank: true
        }
      }
    }
  }
  attr {
    key: "dtypes"
    value {
      list {
        type: DT_FLOAT
        type: DT_FLOAT
        type: DT_HALF
        type: DT_HALF
        type: DT_HALF
        type: DT_HALF
        type: DT_HALF
        type: DT_HALF
        type: DT_HALF
        type: DT_HALF
        type: DT_HALF
        type: DT_HALF
        type: DT_HALF
        type: DT_HALF
        type: DT_HALF
        type: DT_HALF
        type: DT_HALF
        type: DT_HALF
        type: DT_HALF
        type: DT_HALF
        type: DT_HALF
        type: DT_HALF
        type: DT_HALF
        type: DT_HALF
        type: DT_HALF
        type: DT_HALF
        type: DT_INT64
      }
    }
  }
}
node {
  name: "save/Assign"
  op: "Assign"
  input: "beta1_power"
  input: "save/RestoreV2"
  attr {
    key: "T"
    value {
      type: DT_FLOAT
    }
  }
  attr {
    key: "_class"
    value {
      list {
        s: "loc:@conv2d/bias"
      }
    }
  }
  attr {
    key: "_output_shapes"
    value {
      list {
        shape {
        }
      }
    }
  }
  attr {
    key: "use_locking"
    value {
      b: true
    }
  }
  attr {
    key: "validate_shape"
    value {
      b: true
    }
  }
}
node {
  name: "save/Assign_1"
  op: "Assign"
  input: "beta2_power"
  input: "save/RestoreV2:1"
  attr {
    key: "T"
    value {
      type: DT_FLOAT
    }
  }
  attr {
    key: "_class"
    value {
      list {
        s: "loc:@conv2d/bias"
      }
    }
  }
  attr {
    key: "_output_shapes"
    value {
      list {
        shape {
        }
      }
    }
  }
  attr {
    key: "use_locking"
    value {
      b: true
    }
  }
  attr {
    key: "validate_shape"
    value {
      b: true
    }
  }
}
node {
  name: "save/Assign_2"
  op: "Assign"
  input: "conv2d/bias"
  input: "save/RestoreV2:2"
  attr {
    key: "T"
    value {
      type: DT_HALF
    }
  }
  attr {
    key: "_class"
    value {
      list {
        s: "loc:@conv2d/bias"
      }
    }
  }
  attr {
    key: "_output_shapes"
    value {
      list {
        shape {
          dim {
            size: 1
          }
        }
      }
    }
  }
  attr {
    key: "use_locking"
    value {
      b: true
    }
  }
  attr {
    key: "validate_shape"
    value {
      b: true
    }
  }
}
node {
  name: "save/Assign_3"
  op: "Assign"
  input: "conv2d/bias/Adam"
  input: "save/RestoreV2:3"
  attr {
    key: "T"
    value {
      type: DT_HALF
    }
  }
  attr {
    key: "_class"
    value {
      list {
        s: "loc:@conv2d/bias"
      }
    }
  }
  attr {
    key: "_output_shapes"
    value {
      list {
        shape {
          dim {
            size: 1
          }
        }
      }
    }
  }
  attr {
    key: "use_locking"
    value {
      b: true
    }
  }
  attr {
    key: "validate_shape"
    value {
      b: true
    }
  }
}
node {
  name: "save/Assign_4"
  op: "Assign"
  input: "conv2d/bias/Adam_1"
  input: "save/RestoreV2:4"
  attr {
    key: "T"
    value {
      type: DT_HALF
    }
  }
  attr {
    key: "_class"
    value {
      list {
        s: "loc:@conv2d/bias"
      }
    }
  }
  attr {
    key: "_output_shapes"
    value {
      list {
        shape {
          dim {
            size: 1
          }
        }
      }
    }
  }
  attr {
    key: "use_locking"
    value {
      b: true
    }
  }
  attr {
    key: "validate_shape"
    value {
      b: true
    }
  }
}
node {
  name: "save/Assign_5"
  op: "Assign"
  input: "conv2d/kernel"
  input: "save/RestoreV2:5"
  attr {
    key: "T"
    value {
      type: DT_HALF
    }
  }
  attr {
    key: "_class"
    value {
      list {
        s: "loc:@conv2d/kernel"
      }
    }
  }
  attr {
    key: "_output_shapes"
    value {
      list {
        shape {
          dim {
            size: 3
          }
          dim {
            size: 3
          }
          dim {
            size: 1
          }
          dim {
            size: 1
          }
        }
      }
    }
  }
  attr {
    key: "use_locking"
    value {
      b: true
    }
  }
  attr {
    key: "validate_shape"
    value {
      b: true
    }
  }
}
node {
  name: "save/Assign_6"
  op: "Assign"
  input: "conv2d/kernel/Adam"
  input: "save/RestoreV2:6"
  attr {
    key: "T"
    value {
      type: DT_HALF
    }
  }
  attr {
    key: "_class"
    value {
      list {
        s: "loc:@conv2d/kernel"
      }
    }
  }
  attr {
    key: "_output_shapes"
    value {
      list {
        shape {
          dim {
            size: 3
          }
          dim {
            size: 3
          }
          dim {
            size: 1
          }
          dim {
            size: 1
          }
        }
      }
    }
  }
  attr {
    key: "use_locking"
    value {
      b: true
    }
  }
  attr {
    key: "validate_shape"
    value {
      b: true
    }
  }
}
node {
  name: "save/Assign_7"
  op: "Assign"
  input: "conv2d/kernel/Adam_1"
  input: "save/RestoreV2:7"
  attr {
    key: "T"
    value {
      type: DT_HALF
    }
  }
  attr {
    key: "_class"
    value {
      list {
        s: "loc:@conv2d/kernel"
      }
    }
  }
  attr {
    key: "_output_shapes"
    value {
      list {
        shape {
          dim {
            size: 3
          }
          dim {
            size: 3
          }
          dim {
            size: 1
          }
          dim {
            size: 1
          }
        }
      }
    }
  }
  attr {
    key: "use_locking"
    value {
      b: true
    }
  }
  attr {
    key: "validate_shape"
    value {
      b: true
    }
  }
}
node {
  name: "save/Assign_8"
  op: "Assign"
  input: "conv2d_1/bias"
  input: "save/RestoreV2:8"
  attr {
    key: "T"
    value {
      type: DT_HALF
    }
  }
  attr {
    key: "_class"
    value {
      list {
        s: "loc:@conv2d_1/bias"
      }
    }
  }
  attr {
    key: "_output_shapes"
    value {
      list {
        shape {
          dim {
            size: 1
          }
        }
      }
    }
  }
  attr {
    key: "use_locking"
    value {
      b: true
    }
  }
  attr {
    key: "validate_shape"
    value {
      b: true
    }
  }
}
node {
  name: "save/Assign_9"
  op: "Assign"
  input: "conv2d_1/bias/Adam"
  input: "save/RestoreV2:9"
  attr {
    key: "T"
    value {
      type: DT_HALF
    }
  }
  attr {
    key: "_class"
    value {
      list {
        s: "loc:@conv2d_1/bias"
      }
    }
  }
  attr {
    key: "_output_shapes"
    value {
      list {
        shape {
          dim {
            size: 1
          }
        }
      }
    }
  }
  attr {
    key: "use_locking"
    value {
      b: true
    }
  }
  attr {
    key: "validate_shape"
    value {
      b: true
    }
  }
}
node {
  name: "save/Assign_10"
  op: "Assign"
  input: "conv2d_1/bias/Adam_1"
  input: "save/RestoreV2:10"
  attr {
    key: "T"
    value {
      type: DT_HALF
    }
  }
  attr {
    key: "_class"
    value {
      list {
        s: "loc:@conv2d_1/bias"
      }
    }
  }
  attr {
    key: "_output_shapes"
    value {
      list {
        shape {
          dim {
            size: 1
          }
        }
      }
    }
  }
  attr {
    key: "use_locking"
    value {
      b: true
    }
  }
  attr {
    key: "validate_shape"
    value {
      b: true
    }
  }
}
node {
  name: "save/Assign_11"
  op: "Assign"
  input: "conv2d_1/kernel"
  input: "save/RestoreV2:11"
  attr {
    key: "T"
    value {
      type: DT_HALF
    }
  }
  attr {
    key: "_class"
    value {
      list {
        s: "loc:@conv2d_1/kernel"
      }
    }
  }
  attr {
    key: "_output_shapes"
    value {
      list {
        shape {
          dim {
            size: 3
          }
          dim {
            size: 3
          }
          dim {
            size: 1
          }
          dim {
            size: 1
          }
        }
      }
    }
  }
  attr {
    key: "use_locking"
    value {
      b: true
    }
  }
  attr {
    key: "validate_shape"
    value {
      b: true
    }
  }
}
node {
  name: "save/Assign_12"
  op: "Assign"
  input: "conv2d_1/kernel/Adam"
  input: "save/RestoreV2:12"
  attr {
    key: "T"
    value {
      type: DT_HALF
    }
  }
  attr {
    key: "_class"
    value {
      list {
        s: "loc:@conv2d_1/kernel"
      }
    }
  }
  attr {
    key: "_output_shapes"
    value {
      list {
        shape {
          dim {
            size: 3
          }
          dim {
            size: 3
          }
          dim {
            size: 1
          }
          dim {
            size: 1
          }
        }
      }
    }
  }
  attr {
    key: "use_locking"
    value {
      b: true
    }
  }
  attr {
    key: "validate_shape"
    value {
      b: true
    }
  }
}
node {
  name: "save/Assign_13"
  op: "Assign"
  input: "conv2d_1/kernel/Adam_1"
  input: "save/RestoreV2:13"
  attr {
    key: "T"
    value {
      type: DT_HALF
    }
  }
  attr {
    key: "_class"
    value {
      list {
        s: "loc:@conv2d_1/kernel"
      }
    }
  }
  attr {
    key: "_output_shapes"
    value {
      list {
        shape {
          dim {
            size: 3
          }
          dim {
            size: 3
          }
          dim {
            size: 1
          }
          dim {
            size: 1
          }
        }
      }
    }
  }
  attr {
    key: "use_locking"
    value {
      b: true
    }
  }
  attr {
    key: "validate_shape"
    value {
      b: true
    }
  }
}
node {
  name: "save/Assign_14"
  op: "Assign"
  input: "dense/bias"
  input: "save/RestoreV2:14"
  attr {
    key: "T"
    value {
      type: DT_HALF
    }
  }
  attr {
    key: "_class"
    value {
      list {
        s: "loc:@dense/bias"
      }
    }
  }
  attr {
    key: "_output_shapes"
    value {
      list {
        shape {
          dim {
            size: 5
          }
        }
      }
    }
  }
  attr {
    key: "use_locking"
    value {
      b: true
    }
  }
  attr {
    key: "validate_shape"
    value {
      b: true
    }
  }
}
node {
  name: "save/Assign_15"
  op: "Assign"
  input: "dense/bias/Adam"
  input: "save/RestoreV2:15"
  attr {
    key: "T"
    value {
      type: DT_HALF
    }
  }
  attr {
    key: "_class"
    value {
      list {
        s: "loc:@dense/bias"
      }
    }
  }
  attr {
    key: "_output_shapes"
    value {
      list {
        shape {
          dim {
            size: 5
          }
        }
      }
    }
  }
  attr {
    key: "use_locking"
    value {
      b: true
    }
  }
  attr {
    key: "validate_shape"
    value {
      b: true
    }
  }
}
node {
  name: "save/Assign_16"
  op: "Assign"
  input: "dense/bias/Adam_1"
  input: "save/RestoreV2:16"
  attr {
    key: "T"
    value {
      type: DT_HALF
    }
  }
  attr {
    key: "_class"
    value {
      list {
        s: "loc:@dense/bias"
      }
    }
  }
  attr {
    key: "_output_shapes"
    value {
      list {
        shape {
          dim {
            size: 5
          }
        }
      }
    }
  }
  attr {
    key: "use_locking"
    value {
      b: true
    }
  }
  attr {
    key: "validate_shape"
    value {
      b: true
    }
  }
}
node {
  name: "save/Assign_17"
  op: "Assign"
  input: "dense/kernel"
  input: "save/RestoreV2:17"
  attr {
    key: "T"
    value {
      type: DT_HALF
    }
  }
  attr {
    key: "_class"
    value {
      list {
        s: "loc:@dense/kernel"
      }
    }
  }
  attr {
    key: "_output_shapes"
    value {
      list {
        shape {
          dim {
            size: 49
          }
          dim {
            size: 5
          }
        }
      }
    }
  }
  attr {
    key: "use_locking"
    value {
      b: true
    }
  }
  attr {
    key: "validate_shape"
    value {
      b: true
    }
  }
}
node {
  name: "save/Assign_18"
  op: "Assign"
  input: "dense/kernel/Adam"
  input: "save/RestoreV2:18"
  attr {
    key: "T"
    value {
      type: DT_HALF
    }
  }
  attr {
    key: "_class"
    value {
      list {
        s: "loc:@dense/kernel"
      }
    }
  }
  attr {
    key: "_output_shapes"
    value {
      list {
        shape {
          dim {
            size: 49
          }
          dim {
            size: 5
          }
        }
      }
    }
  }
  attr {
    key: "use_locking"
    value {
      b: true
    }
  }
  attr {
    key: "validate_shape"
    value {
      b: true
    }
  }
}
node {
  name: "save/Assign_19"
  op: "Assign"
  input: "dense/kernel/Adam_1"
  input: "save/RestoreV2:19"
  attr {
    key: "T"
    value {
      type: DT_HALF
    }
  }
  attr {
    key: "_class"
    value {
      list {
        s: "loc:@dense/kernel"
      }
    }
  }
  attr {
    key: "_output_shapes"
    value {
      list {
        shape {
          dim {
            size: 49
          }
          dim {
            size: 5
          }
        }
      }
    }
  }
  attr {
    key: "use_locking"
    value {
      b: true
    }
  }
  attr {
    key: "validate_shape"
    value {
      b: true
    }
  }
}
node {
  name: "save/Assign_20"
  op: "Assign"
  input: "dense_1/bias"
  input: "save/RestoreV2:20"
  attr {
    key: "T"
    value {
      type: DT_HALF
    }
  }
  attr {
    key: "_class"
    value {
      list {
        s: "loc:@dense_1/bias"
      }
    }
  }
  attr {
    key: "_output_shapes"
    value {
      list {
        shape {
          dim {
            size: 3
          }
        }
      }
    }
  }
  attr {
    key: "use_locking"
    value {
      b: true
    }
  }
  attr {
    key: "validate_shape"
    value {
      b: true
    }
  }
}
node {
  name: "save/Assign_21"
  op: "Assign"
  input: "dense_1/bias/Adam"
  input: "save/RestoreV2:21"
  attr {
    key: "T"
    value {
      type: DT_HALF
    }
  }
  attr {
    key: "_class"
    value {
      list {
        s: "loc:@dense_1/bias"
      }
    }
  }
  attr {
    key: "_output_shapes"
    value {
      list {
        shape {
          dim {
            size: 3
          }
        }
      }
    }
  }
  attr {
    key: "use_locking"
    value {
      b: true
    }
  }
  attr {
    key: "validate_shape"
    value {
      b: true
    }
  }
}
node {
  name: "save/Assign_22"
  op: "Assign"
  input: "dense_1/bias/Adam_1"
  input: "save/RestoreV2:22"
  attr {
    key: "T"
    value {
      type: DT_HALF
    }
  }
  attr {
    key: "_class"
    value {
      list {
        s: "loc:@dense_1/bias"
      }
    }
  }
  attr {
    key: "_output_shapes"
    value {
      list {
        shape {
          dim {
            size: 3
          }
        }
      }
    }
  }
  attr {
    key: "use_locking"
    value {
      b: true
    }
  }
  attr {
    key: "validate_shape"
    value {
      b: true
    }
  }
}
node {
  name: "save/Assign_23"
  op: "Assign"
  input: "dense_1/kernel"
  input: "save/RestoreV2:23"
  attr {
    key: "T"
    value {
      type: DT_HALF
    }
  }
  attr {
    key: "_class"
    value {
      list {
        s: "loc:@dense_1/kernel"
      }
    }
  }
  attr {
    key: "_output_shapes"
    value {
      list {
        shape {
          dim {
            size: 5
          }
          dim {
            size: 3
          }
        }
      }
    }
  }
  attr {
    key: "use_locking"
    value {
      b: true
    }
  }
  attr {
    key: "validate_shape"
    value {
      b: true
    }
  }
}
node {
  name: "save/Assign_24"
  op: "Assign"
  input: "dense_1/kernel/Adam"
  input: "save/RestoreV2:24"
  attr {
    key: "T"
    value {
      type: DT_HALF
    }
  }
  attr {
    key: "_class"
    value {
      list {
        s: "loc:@dense_1/kernel"
      }
    }
  }
  attr {
    key: "_output_shapes"
    value {
      list {
        shape {
          dim {
            size: 5
          }
          dim {
            size: 3
          }
        }
      }
    }
  }
  attr {
    key: "use_locking"
    value {
      b: true
    }
  }
  attr {
    key: "validate_shape"
    value {
      b: true
    }
  }
}
node {
  name: "save/Assign_25"
  op: "Assign"
  input: "dense_1/kernel/Adam_1"
  input: "save/RestoreV2:25"
  attr {
    key: "T"
    value {
      type: DT_HALF
    }
  }
  attr {
    key: "_class"
    value {
      list {
        s: "loc:@dense_1/kernel"
      }
    }
  }
  attr {
    key: "_output_shapes"
    value {
      list {
        shape {
          dim {
            size: 5
          }
          dim {
            size: 3
          }
        }
      }
    }
  }
  attr {
    key: "use_locking"
    value {
      b: true
    }
  }
  attr {
    key: "validate_shape"
    value {
      b: true
    }
  }
}
node {
  name: "save/Assign_26"
  op: "Assign"
  input: "global_step"
  input: "save/RestoreV2:26"
  attr {
    key: "T"
    value {
      type: DT_INT64
    }
  }
  attr {
    key: "_class"
    value {
      list {
        s: "loc:@global_step"
      }
    }
  }
  attr {
    key: "_output_shapes"
    value {
      list {
        shape {
        }
      }
    }
  }
  attr {
    key: "use_locking"
    value {
      b: true
    }
  }
  attr {
    key: "validate_shape"
    value {
      b: true
    }
  }
}
node {
  name: "save/restore_shard"
  op: "NoOp"
  input: "^save/Assign"
  input: "^save/Assign_1"
  input: "^save/Assign_10"
  input: "^save/Assign_11"
  input: "^save/Assign_12"
  input: "^save/Assign_13"
  input: "^save/Assign_14"
  input: "^save/Assign_15"
  input: "^save/Assign_16"
  input: "^save/Assign_17"
  input: "^save/Assign_18"
  input: "^save/Assign_19"
  input: "^save/Assign_2"
  input: "^save/Assign_20"
  input: "^save/Assign_21"
  input: "^save/Assign_22"
  input: "^save/Assign_23"
  input: "^save/Assign_24"
  input: "^save/Assign_25"
  input: "^save/Assign_26"
  input: "^save/Assign_3"
  input: "^save/Assign_4"
  input: "^save/Assign_5"
  input: "^save/Assign_6"
  input: "^save/Assign_7"
  input: "^save/Assign_8"
  input: "^save/Assign_9"
}
node {
  name: "save/restore_all"
  op: "NoOp"
  input: "^save/restore_shard"
}
versions {
  producer: 26
}
